saved_model_schema_version: 1
meta_graphs {
  meta_info_def {
    stripped_op_list {
      op {
        name: "Add"
        input_arg {
          name: "x"
          type_attr: "T"
        }
        input_arg {
          name: "y"
          type_attr: "T"
        }
        output_arg {
          name: "z"
          type_attr: "T"
        }
        attr {
          name: "T"
          type: "type"
          allowed_values {
            list {
              type: DT_HALF
              type: DT_FLOAT
              type: DT_DOUBLE
              type: DT_UINT8
              type: DT_INT8
              type: DT_INT16
              type: DT_INT32
              type: DT_INT64
              type: DT_COMPLEX64
              type: DT_COMPLEX128
              type: DT_STRING
            }
          }
        }
      }
      op {
        name: "ArgMax"
        input_arg {
          name: "input"
          type_attr: "T"
        }
        input_arg {
          name: "dimension"
          type_attr: "Tidx"
        }
        output_arg {
          name: "output"
          type_attr: "output_type"
        }
        attr {
          name: "T"
          type: "type"
          allowed_values {
            list {
              type: DT_FLOAT
              type: DT_DOUBLE
              type: DT_INT64
              type: DT_INT32
              type: DT_UINT8
              type: DT_UINT16
              type: DT_INT16
              type: DT_INT8
              type: DT_COMPLEX64
              type: DT_COMPLEX128
              type: DT_QINT8
              type: DT_QUINT8
              type: DT_QINT32
              type: DT_HALF
            }
          }
        }
        attr {
          name: "Tidx"
          type: "type"
          default_value {
            type: DT_INT32
          }
          allowed_values {
            list {
              type: DT_INT32
              type: DT_INT64
            }
          }
        }
        attr {
          name: "output_type"
          type: "type"
          default_value {
            type: DT_INT64
          }
          allowed_values {
            list {
              type: DT_INT32
              type: DT_INT64
            }
          }
        }
      }
      op {
        name: "Assign"
        input_arg {
          name: "ref"
          type_attr: "T"
          is_ref: true
        }
        input_arg {
          name: "value"
          type_attr: "T"
        }
        output_arg {
          name: "output_ref"
          type_attr: "T"
          is_ref: true
        }
        attr {
          name: "T"
          type: "type"
        }
        attr {
          name: "validate_shape"
          type: "bool"
          default_value {
            b: true
          }
        }
        attr {
          name: "use_locking"
          type: "bool"
          default_value {
            b: true
          }
        }
        allows_uninitialized_input: true
      }
      op {
        name: "BiasAdd"
        input_arg {
          name: "value"
          type_attr: "T"
        }
        input_arg {
          name: "bias"
          type_attr: "T"
        }
        output_arg {
          name: "output"
          type_attr: "T"
        }
        attr {
          name: "T"
          type: "type"
          allowed_values {
            list {
              type: DT_FLOAT
              type: DT_DOUBLE
              type: DT_INT64
              type: DT_INT32
              type: DT_UINT8
              type: DT_UINT16
              type: DT_INT16
              type: DT_INT8
              type: DT_COMPLEX64
              type: DT_COMPLEX128
              type: DT_QINT8
              type: DT_QUINT8
              type: DT_QINT32
              type: DT_HALF
            }
          }
        }
        attr {
          name: "data_format"
          type: "string"
          default_value {
            s: "NHWC"
          }
          allowed_values {
            list {
              s: "NHWC"
              s: "NCHW"
            }
          }
        }
      }
      op {
        name: "ConcatV2"
        input_arg {
          name: "values"
          type_attr: "T"
          number_attr: "N"
        }
        input_arg {
          name: "axis"
          type_attr: "Tidx"
        }
        output_arg {
          name: "output"
          type_attr: "T"
        }
        attr {
          name: "N"
          type: "int"
          has_minimum: true
          minimum: 2
        }
        attr {
          name: "T"
          type: "type"
        }
        attr {
          name: "Tidx"
          type: "type"
          default_value {
            type: DT_INT32
          }
          allowed_values {
            list {
              type: DT_INT32
              type: DT_INT64
            }
          }
        }
      }
      op {
        name: "Const"
        output_arg {
          name: "output"
          type_attr: "dtype"
        }
        attr {
          name: "value"
          type: "tensor"
        }
        attr {
          name: "dtype"
          type: "type"
        }
      }
      op {
        name: "Conv2D"
        input_arg {
          name: "input"
          type_attr: "T"
        }
        input_arg {
          name: "filter"
          type_attr: "T"
        }
        output_arg {
          name: "output"
          type_attr: "T"
        }
        attr {
          name: "T"
          type: "type"
          allowed_values {
            list {
              type: DT_HALF
              type: DT_FLOAT
            }
          }
        }
        attr {
          name: "strides"
          type: "list(int)"
        }
        attr {
          name: "use_cudnn_on_gpu"
          type: "bool"
          default_value {
            b: true
          }
        }
        attr {
          name: "padding"
          type: "string"
          allowed_values {
            list {
              s: "SAME"
              s: "VALID"
            }
          }
        }
        attr {
          name: "data_format"
          type: "string"
          default_value {
            s: "NHWC"
          }
          allowed_values {
            list {
              s: "NHWC"
              s: "NCHW"
            }
          }
        }
      }
      op {
        name: "Conv2DBackpropInput"
        input_arg {
          name: "input_sizes"
          type: DT_INT32
        }
        input_arg {
          name: "filter"
          type_attr: "T"
        }
        input_arg {
          name: "out_backprop"
          type_attr: "T"
        }
        output_arg {
          name: "output"
          type_attr: "T"
        }
        attr {
          name: "T"
          type: "type"
          allowed_values {
            list {
              type: DT_HALF
              type: DT_FLOAT
            }
          }
        }
        attr {
          name: "strides"
          type: "list(int)"
        }
        attr {
          name: "use_cudnn_on_gpu"
          type: "bool"
          default_value {
            b: true
          }
        }
        attr {
          name: "padding"
          type: "string"
          allowed_values {
            list {
              s: "SAME"
              s: "VALID"
            }
          }
        }
        attr {
          name: "data_format"
          type: "string"
          default_value {
            s: "NHWC"
          }
          allowed_values {
            list {
              s: "NHWC"
              s: "NCHW"
            }
          }
        }
      }
      op {
        name: "Identity"
        input_arg {
          name: "input"
          type_attr: "T"
        }
        output_arg {
          name: "output"
          type_attr: "T"
        }
        attr {
          name: "T"
          type: "type"
        }
      }
      op {
        name: "MaxPool"
        input_arg {
          name: "input"
          type_attr: "T"
        }
        output_arg {
          name: "output"
          type_attr: "T"
        }
        attr {
          name: "T"
          type: "type"
          default_value {
            type: DT_FLOAT
          }
          allowed_values {
            list {
              type: DT_FLOAT
              type: DT_DOUBLE
              type: DT_INT32
              type: DT_INT64
              type: DT_UINT8
              type: DT_INT16
              type: DT_INT8
              type: DT_UINT16
              type: DT_HALF
              type: DT_QINT8
            }
          }
        }
        attr {
          name: "ksize"
          type: "list(int)"
          has_minimum: true
          minimum: 4
        }
        attr {
          name: "strides"
          type: "list(int)"
          has_minimum: true
          minimum: 4
        }
        attr {
          name: "padding"
          type: "string"
          allowed_values {
            list {
              s: "SAME"
              s: "VALID"
            }
          }
        }
        attr {
          name: "data_format"
          type: "string"
          default_value {
            s: "NHWC"
          }
          allowed_values {
            list {
              s: "NHWC"
              s: "NCHW"
              s: "NCHW_VECT_C"
            }
          }
        }
      }
      op {
        name: "MergeV2Checkpoints"
        input_arg {
          name: "checkpoint_prefixes"
          type: DT_STRING
        }
        input_arg {
          name: "destination_prefix"
          type: DT_STRING
        }
        attr {
          name: "delete_old_dirs"
          type: "bool"
          default_value {
            b: true
          }
        }
        is_stateful: true
      }
      op {
        name: "Mul"
        input_arg {
          name: "x"
          type_attr: "T"
        }
        input_arg {
          name: "y"
          type_attr: "T"
        }
        output_arg {
          name: "z"
          type_attr: "T"
        }
        attr {
          name: "T"
          type: "type"
          allowed_values {
            list {
              type: DT_HALF
              type: DT_FLOAT
              type: DT_DOUBLE
              type: DT_UINT8
              type: DT_INT8
              type: DT_UINT16
              type: DT_INT16
              type: DT_INT32
              type: DT_INT64
              type: DT_COMPLEX64
              type: DT_COMPLEX128
            }
          }
        }
        is_commutative: true
      }
      op {
        name: "NoOp"
      }
      op {
        name: "Pack"
        input_arg {
          name: "values"
          type_attr: "T"
          number_attr: "N"
        }
        output_arg {
          name: "output"
          type_attr: "T"
        }
        attr {
          name: "N"
          type: "int"
          has_minimum: true
          minimum: 1
        }
        attr {
          name: "T"
          type: "type"
        }
        attr {
          name: "axis"
          type: "int"
          default_value {
            i: 0
          }
        }
      }
      op {
        name: "Placeholder"
        output_arg {
          name: "output"
          type_attr: "dtype"
        }
        attr {
          name: "dtype"
          type: "type"
        }
        attr {
          name: "shape"
          type: "shape"
          default_value {
            shape {
              unknown_rank: true
            }
          }
        }
      }
      op {
        name: "RandomUniform"
        input_arg {
          name: "shape"
          type_attr: "T"
        }
        output_arg {
          name: "output"
          type_attr: "dtype"
        }
        attr {
          name: "seed"
          type: "int"
          default_value {
            i: 0
          }
        }
        attr {
          name: "seed2"
          type: "int"
          default_value {
            i: 0
          }
        }
        attr {
          name: "dtype"
          type: "type"
          allowed_values {
            list {
              type: DT_HALF
              type: DT_FLOAT
              type: DT_DOUBLE
            }
          }
        }
        attr {
          name: "T"
          type: "type"
          allowed_values {
            list {
              type: DT_INT32
              type: DT_INT64
            }
          }
        }
        is_stateful: true
      }
      op {
        name: "Relu"
        input_arg {
          name: "features"
          type_attr: "T"
        }
        output_arg {
          name: "activations"
          type_attr: "T"
        }
        attr {
          name: "T"
          type: "type"
          allowed_values {
            list {
              type: DT_FLOAT
              type: DT_DOUBLE
              type: DT_INT32
              type: DT_INT64
              type: DT_UINT8
              type: DT_INT16
              type: DT_INT8
              type: DT_UINT16
              type: DT_HALF
            }
          }
        }
      }
      op {
        name: "Reshape"
        input_arg {
          name: "tensor"
          type_attr: "T"
        }
        input_arg {
          name: "shape"
          type_attr: "Tshape"
        }
        output_arg {
          name: "output"
          type_attr: "T"
        }
        attr {
          name: "T"
          type: "type"
        }
        attr {
          name: "Tshape"
          type: "type"
          default_value {
            type: DT_INT32
          }
          allowed_values {
            list {
              type: DT_INT32
              type: DT_INT64
            }
          }
        }
      }
      op {
        name: "RestoreV2"
        input_arg {
          name: "prefix"
          type: DT_STRING
        }
        input_arg {
          name: "tensor_names"
          type: DT_STRING
        }
        input_arg {
          name: "shape_and_slices"
          type: DT_STRING
        }
        output_arg {
          name: "tensors"
          type_list_attr: "dtypes"
        }
        attr {
          name: "dtypes"
          type: "list(type)"
          has_minimum: true
          minimum: 1
        }
        is_stateful: true
      }
      op {
        name: "SaveV2"
        input_arg {
          name: "prefix"
          type: DT_STRING
        }
        input_arg {
          name: "tensor_names"
          type: DT_STRING
        }
        input_arg {
          name: "shape_and_slices"
          type: DT_STRING
        }
        input_arg {
          name: "tensors"
          type_list_attr: "dtypes"
        }
        attr {
          name: "dtypes"
          type: "list(type)"
          has_minimum: true
          minimum: 1
        }
        is_stateful: true
      }
      op {
        name: "Shape"
        input_arg {
          name: "input"
          type_attr: "T"
        }
        output_arg {
          name: "output"
          type_attr: "out_type"
        }
        attr {
          name: "T"
          type: "type"
        }
        attr {
          name: "out_type"
          type: "type"
          default_value {
            type: DT_INT32
          }
          allowed_values {
            list {
              type: DT_INT32
              type: DT_INT64
            }
          }
        }
      }
      op {
        name: "ShardedFilename"
        input_arg {
          name: "basename"
          type: DT_STRING
        }
        input_arg {
          name: "shard"
          type: DT_INT32
        }
        input_arg {
          name: "num_shards"
          type: DT_INT32
        }
        output_arg {
          name: "filename"
          type: DT_STRING
        }
      }
      op {
        name: "Slice"
        input_arg {
          name: "input"
          type_attr: "T"
        }
        input_arg {
          name: "begin"
          type_attr: "Index"
        }
        input_arg {
          name: "size"
          type_attr: "Index"
        }
        output_arg {
          name: "output"
          type_attr: "T"
        }
        attr {
          name: "T"
          type: "type"
        }
        attr {
          name: "Index"
          type: "type"
          allowed_values {
            list {
              type: DT_INT32
              type: DT_INT64
            }
          }
        }
      }
      op {
        name: "Softmax"
        input_arg {
          name: "logits"
          type_attr: "T"
        }
        output_arg {
          name: "softmax"
          type_attr: "T"
        }
        attr {
          name: "T"
          type: "type"
          allowed_values {
            list {
              type: DT_HALF
              type: DT_FLOAT
              type: DT_DOUBLE
            }
          }
        }
      }
      op {
        name: "StridedSlice"
        input_arg {
          name: "input"
          type_attr: "T"
        }
        input_arg {
          name: "begin"
          type_attr: "Index"
        }
        input_arg {
          name: "end"
          type_attr: "Index"
        }
        input_arg {
          name: "strides"
          type_attr: "Index"
        }
        output_arg {
          name: "output"
          type_attr: "T"
        }
        attr {
          name: "T"
          type: "type"
        }
        attr {
          name: "Index"
          type: "type"
          allowed_values {
            list {
              type: DT_INT32
              type: DT_INT64
            }
          }
        }
        attr {
          name: "begin_mask"
          type: "int"
          default_value {
            i: 0
          }
        }
        attr {
          name: "end_mask"
          type: "int"
          default_value {
            i: 0
          }
        }
        attr {
          name: "ellipsis_mask"
          type: "int"
          default_value {
            i: 0
          }
        }
        attr {
          name: "new_axis_mask"
          type: "int"
          default_value {
            i: 0
          }
        }
        attr {
          name: "shrink_axis_mask"
          type: "int"
          default_value {
            i: 0
          }
        }
      }
      op {
        name: "StringJoin"
        input_arg {
          name: "inputs"
          type: DT_STRING
          number_attr: "N"
        }
        output_arg {
          name: "output"
          type: DT_STRING
        }
        attr {
          name: "N"
          type: "int"
          has_minimum: true
          minimum: 1
        }
        attr {
          name: "separator"
          type: "string"
          default_value {
            s: ""
          }
        }
      }
      op {
        name: "Sub"
        input_arg {
          name: "x"
          type_attr: "T"
        }
        input_arg {
          name: "y"
          type_attr: "T"
        }
        output_arg {
          name: "z"
          type_attr: "T"
        }
        attr {
          name: "T"
          type: "type"
          allowed_values {
            list {
              type: DT_HALF
              type: DT_FLOAT
              type: DT_DOUBLE
              type: DT_UINT8
              type: DT_INT8
              type: DT_UINT16
              type: DT_INT16
              type: DT_INT32
              type: DT_INT64
              type: DT_COMPLEX64
              type: DT_COMPLEX128
            }
          }
        }
      }
      op {
        name: "VariableV2"
        output_arg {
          name: "ref"
          type_attr: "dtype"
          is_ref: true
        }
        attr {
          name: "shape"
          type: "shape"
        }
        attr {
          name: "dtype"
          type: "type"
        }
        attr {
          name: "container"
          type: "string"
          default_value {
            s: ""
          }
        }
        attr {
          name: "shared_name"
          type: "string"
          default_value {
            s: ""
          }
        }
        is_stateful: true
      }
    }
    tags: "serve"
    tensorflow_version: "1.4.0"
    tensorflow_git_version: "v1.4.0-rc1-11-g130a514"
  }
  graph_def {
    node {
      name: "global_step/Initializer/zeros"
      op: "Const"
      attr {
        key: "_class"
        value {
          list {
            s: "loc:@global_step"
          }
        }
      }
      attr {
        key: "_output_shapes"
        value {
          list {
            shape {
            }
          }
        }
      }
      attr {
        key: "dtype"
        value {
          type: DT_INT64
        }
      }
      attr {
        key: "value"
        value {
          tensor {
            dtype: DT_INT64
            tensor_shape {
            }
            int64_val: 0
          }
        }
      }
    }
    node {
      name: "global_step"
      op: "VariableV2"
      attr {
        key: "_class"
        value {
          list {
            s: "loc:@global_step"
          }
        }
      }
      attr {
        key: "_output_shapes"
        value {
          list {
            shape {
            }
          }
        }
      }
      attr {
        key: "container"
        value {
          s: ""
        }
      }
      attr {
        key: "dtype"
        value {
          type: DT_INT64
        }
      }
      attr {
        key: "shape"
        value {
          shape {
          }
        }
      }
      attr {
        key: "shared_name"
        value {
          s: ""
        }
      }
    }
    node {
      name: "global_step/Assign"
      op: "Assign"
      input: "global_step"
      input: "global_step/Initializer/zeros"
      attr {
        key: "T"
        value {
          type: DT_INT64
        }
      }
      attr {
        key: "_class"
        value {
          list {
            s: "loc:@global_step"
          }
        }
      }
      attr {
        key: "_output_shapes"
        value {
          list {
            shape {
            }
          }
        }
      }
      attr {
        key: "use_locking"
        value {
          b: true
        }
      }
      attr {
        key: "validate_shape"
        value {
          b: true
        }
      }
    }
    node {
      name: "global_step/read"
      op: "Identity"
      input: "global_step"
      attr {
        key: "T"
        value {
          type: DT_INT64
        }
      }
      attr {
        key: "_class"
        value {
          list {
            s: "loc:@global_step"
          }
        }
      }
      attr {
        key: "_output_shapes"
        value {
          list {
            shape {
            }
          }
        }
      }
    }
    node {
      name: "Placeholder"
      op: "Placeholder"
      attr {
        key: "_output_shapes"
        value {
          list {
            shape {
              dim {
                size: -1
              }
              dim {
                size: 64
              }
              dim {
                size: 512
              }
              dim {
                size: 5
              }
            }
          }
        }
      }
      attr {
        key: "dtype"
        value {
          type: DT_FLOAT
        }
      }
      attr {
        key: "shape"
        value {
          shape {
            dim {
              size: -1
            }
            dim {
              size: 64
            }
            dim {
              size: 512
            }
            dim {
              size: 5
            }
          }
        }
      }
    }
    node {
      name: "Reshape/shape"
      op: "Const"
      attr {
        key: "_output_shapes"
        value {
          list {
            shape {
              dim {
                size: 4
              }
            }
          }
        }
      }
      attr {
        key: "dtype"
        value {
          type: DT_INT32
        }
      }
      attr {
        key: "value"
        value {
          tensor {
            dtype: DT_INT32
            tensor_shape {
              dim {
                size: 4
              }
            }
            tensor_content: "\377\377\377\377@\000\000\000\000\002\000\000\005\000\000\000"
          }
        }
      }
    }
    node {
      name: "Reshape"
      op: "Reshape"
      input: "Placeholder"
      input: "Reshape/shape"
      attr {
        key: "T"
        value {
          type: DT_FLOAT
        }
      }
      attr {
        key: "Tshape"
        value {
          type: DT_INT32
        }
      }
      attr {
        key: "_output_shapes"
        value {
          list {
            shape {
              dim {
                size: -1
              }
              dim {
                size: 64
              }
              dim {
                size: 512
              }
              dim {
                size: 5
              }
            }
          }
        }
      }
    }
    node {
      name: "conv1/kernel/Initializer/random_uniform/shape"
      op: "Const"
      attr {
        key: "_class"
        value {
          list {
            s: "loc:@conv1/kernel"
          }
        }
      }
      attr {
        key: "_output_shapes"
        value {
          list {
            shape {
              dim {
                size: 4
              }
            }
          }
        }
      }
      attr {
        key: "dtype"
        value {
          type: DT_INT32
        }
      }
      attr {
        key: "value"
        value {
          tensor {
            dtype: DT_INT32
            tensor_shape {
              dim {
                size: 4
              }
            }
            tensor_content: "\003\000\000\000\007\000\000\000\005\000\000\000`\000\000\000"
          }
        }
      }
    }
    node {
      name: "conv1/kernel/Initializer/random_uniform/min"
      op: "Const"
      attr {
        key: "_class"
        value {
          list {
            s: "loc:@conv1/kernel"
          }
        }
      }
      attr {
        key: "_output_shapes"
        value {
          list {
            shape {
            }
          }
        }
      }
      attr {
        key: "dtype"
        value {
          type: DT_FLOAT
        }
      }
      attr {
        key: "value"
        value {
          tensor {
            dtype: DT_FLOAT
            tensor_shape {
            }
            float_val: -0.0531869754195
          }
        }
      }
    }
    node {
      name: "conv1/kernel/Initializer/random_uniform/max"
      op: "Const"
      attr {
        key: "_class"
        value {
          list {
            s: "loc:@conv1/kernel"
          }
        }
      }
      attr {
        key: "_output_shapes"
        value {
          list {
            shape {
            }
          }
        }
      }
      attr {
        key: "dtype"
        value {
          type: DT_FLOAT
        }
      }
      attr {
        key: "value"
        value {
          tensor {
            dtype: DT_FLOAT
            tensor_shape {
            }
            float_val: 0.0531869754195
          }
        }
      }
    }
    node {
      name: "conv1/kernel/Initializer/random_uniform/RandomUniform"
      op: "RandomUniform"
      input: "conv1/kernel/Initializer/random_uniform/shape"
      attr {
        key: "T"
        value {
          type: DT_INT32
        }
      }
      attr {
        key: "_class"
        value {
          list {
            s: "loc:@conv1/kernel"
          }
        }
      }
      attr {
        key: "_output_shapes"
        value {
          list {
            shape {
              dim {
                size: 3
              }
              dim {
                size: 7
              }
              dim {
                size: 5
              }
              dim {
                size: 96
              }
            }
          }
        }
      }
      attr {
        key: "dtype"
        value {
          type: DT_FLOAT
        }
      }
      attr {
        key: "seed"
        value {
          i: 0
        }
      }
      attr {
        key: "seed2"
        value {
          i: 0
        }
      }
    }
    node {
      name: "conv1/kernel/Initializer/random_uniform/sub"
      op: "Sub"
      input: "conv1/kernel/Initializer/random_uniform/max"
      input: "conv1/kernel/Initializer/random_uniform/min"
      attr {
        key: "T"
        value {
          type: DT_FLOAT
        }
      }
      attr {
        key: "_class"
        value {
          list {
            s: "loc:@conv1/kernel"
          }
        }
      }
      attr {
        key: "_output_shapes"
        value {
          list {
            shape {
            }
          }
        }
      }
    }
    node {
      name: "conv1/kernel/Initializer/random_uniform/mul"
      op: "Mul"
      input: "conv1/kernel/Initializer/random_uniform/RandomUniform"
      input: "conv1/kernel/Initializer/random_uniform/sub"
      attr {
        key: "T"
        value {
          type: DT_FLOAT
        }
      }
      attr {
        key: "_class"
        value {
          list {
            s: "loc:@conv1/kernel"
          }
        }
      }
      attr {
        key: "_output_shapes"
        value {
          list {
            shape {
              dim {
                size: 3
              }
              dim {
                size: 7
              }
              dim {
                size: 5
              }
              dim {
                size: 96
              }
            }
          }
        }
      }
    }
    node {
      name: "conv1/kernel/Initializer/random_uniform"
      op: "Add"
      input: "conv1/kernel/Initializer/random_uniform/mul"
      input: "conv1/kernel/Initializer/random_uniform/min"
      attr {
        key: "T"
        value {
          type: DT_FLOAT
        }
      }
      attr {
        key: "_class"
        value {
          list {
            s: "loc:@conv1/kernel"
          }
        }
      }
      attr {
        key: "_output_shapes"
        value {
          list {
            shape {
              dim {
                size: 3
              }
              dim {
                size: 7
              }
              dim {
                size: 5
              }
              dim {
                size: 96
              }
            }
          }
        }
      }
    }
    node {
      name: "conv1/kernel"
      op: "VariableV2"
      attr {
        key: "_class"
        value {
          list {
            s: "loc:@conv1/kernel"
          }
        }
      }
      attr {
        key: "_output_shapes"
        value {
          list {
            shape {
              dim {
                size: 3
              }
              dim {
                size: 7
              }
              dim {
                size: 5
              }
              dim {
                size: 96
              }
            }
          }
        }
      }
      attr {
        key: "container"
        value {
          s: ""
        }
      }
      attr {
        key: "dtype"
        value {
          type: DT_FLOAT
        }
      }
      attr {
        key: "shape"
        value {
          shape {
            dim {
              size: 3
            }
            dim {
              size: 7
            }
            dim {
              size: 5
            }
            dim {
              size: 96
            }
          }
        }
      }
      attr {
        key: "shared_name"
        value {
          s: ""
        }
      }
    }
    node {
      name: "conv1/kernel/Assign"
      op: "Assign"
      input: "conv1/kernel"
      input: "conv1/kernel/Initializer/random_uniform"
      attr {
        key: "T"
        value {
          type: DT_FLOAT
        }
      }
      attr {
        key: "_class"
        value {
          list {
            s: "loc:@conv1/kernel"
          }
        }
      }
      attr {
        key: "_output_shapes"
        value {
          list {
            shape {
              dim {
                size: 3
              }
              dim {
                size: 7
              }
              dim {
                size: 5
              }
              dim {
                size: 96
              }
            }
          }
        }
      }
      attr {
        key: "use_locking"
        value {
          b: true
        }
      }
      attr {
        key: "validate_shape"
        value {
          b: true
        }
      }
    }
    node {
      name: "conv1/kernel/read"
      op: "Identity"
      input: "conv1/kernel"
      attr {
        key: "T"
        value {
          type: DT_FLOAT
        }
      }
      attr {
        key: "_class"
        value {
          list {
            s: "loc:@conv1/kernel"
          }
        }
      }
      attr {
        key: "_output_shapes"
        value {
          list {
            shape {
              dim {
                size: 3
              }
              dim {
                size: 7
              }
              dim {
                size: 5
              }
              dim {
                size: 96
              }
            }
          }
        }
      }
    }
    node {
      name: "conv1/bias/Initializer/zeros"
      op: "Const"
      attr {
        key: "_class"
        value {
          list {
            s: "loc:@conv1/bias"
          }
        }
      }
      attr {
        key: "_output_shapes"
        value {
          list {
            shape {
              dim {
                size: 96
              }
            }
          }
        }
      }
      attr {
        key: "dtype"
        value {
          type: DT_FLOAT
        }
      }
      attr {
        key: "value"
        value {
          tensor {
            dtype: DT_FLOAT
            tensor_shape {
              dim {
                size: 96
              }
            }
            float_val: 0.0
          }
        }
      }
    }
    node {
      name: "conv1/bias"
      op: "VariableV2"
      attr {
        key: "_class"
        value {
          list {
            s: "loc:@conv1/bias"
          }
        }
      }
      attr {
        key: "_output_shapes"
        value {
          list {
            shape {
              dim {
                size: 96
              }
            }
          }
        }
      }
      attr {
        key: "container"
        value {
          s: ""
        }
      }
      attr {
        key: "dtype"
        value {
          type: DT_FLOAT
        }
      }
      attr {
        key: "shape"
        value {
          shape {
            dim {
              size: 96
            }
          }
        }
      }
      attr {
        key: "shared_name"
        value {
          s: ""
        }
      }
    }
    node {
      name: "conv1/bias/Assign"
      op: "Assign"
      input: "conv1/bias"
      input: "conv1/bias/Initializer/zeros"
      attr {
        key: "T"
        value {
          type: DT_FLOAT
        }
      }
      attr {
        key: "_class"
        value {
          list {
            s: "loc:@conv1/bias"
          }
        }
      }
      attr {
        key: "_output_shapes"
        value {
          list {
            shape {
              dim {
                size: 96
              }
            }
          }
        }
      }
      attr {
        key: "use_locking"
        value {
          b: true
        }
      }
      attr {
        key: "validate_shape"
        value {
          b: true
        }
      }
    }
    node {
      name: "conv1/bias/read"
      op: "Identity"
      input: "conv1/bias"
      attr {
        key: "T"
        value {
          type: DT_FLOAT
        }
      }
      attr {
        key: "_class"
        value {
          list {
            s: "loc:@conv1/bias"
          }
        }
      }
      attr {
        key: "_output_shapes"
        value {
          list {
            shape {
              dim {
                size: 96
              }
            }
          }
        }
      }
    }
    node {
      name: "conv1/dilation_rate"
      op: "Const"
      attr {
        key: "_output_shapes"
        value {
          list {
            shape {
              dim {
                size: 2
              }
            }
          }
        }
      }
      attr {
        key: "dtype"
        value {
          type: DT_INT32
        }
      }
      attr {
        key: "value"
        value {
          tensor {
            dtype: DT_INT32
            tensor_shape {
              dim {
                size: 2
              }
            }
            tensor_content: "\001\000\000\000\001\000\000\000"
          }
        }
      }
    }
    node {
      name: "conv1/Conv2D"
      op: "Conv2D"
      input: "Reshape"
      input: "conv1/kernel/read"
      attr {
        key: "T"
        value {
          type: DT_FLOAT
        }
      }
      attr {
        key: "_output_shapes"
        value {
          list {
            shape {
              dim {
                size: -1
              }
              dim {
                size: 64
              }
              dim {
                size: 256
              }
              dim {
                size: 96
              }
            }
          }
        }
      }
      attr {
        key: "data_format"
        value {
          s: "NHWC"
        }
      }
      attr {
        key: "padding"
        value {
          s: "SAME"
        }
      }
      attr {
        key: "strides"
        value {
          list {
            i: 1
            i: 1
            i: 2
            i: 1
          }
        }
      }
      attr {
        key: "use_cudnn_on_gpu"
        value {
          b: true
        }
      }
    }
    node {
      name: "conv1/BiasAdd"
      op: "BiasAdd"
      input: "conv1/Conv2D"
      input: "conv1/bias/read"
      attr {
        key: "T"
        value {
          type: DT_FLOAT
        }
      }
      attr {
        key: "_output_shapes"
        value {
          list {
            shape {
              dim {
                size: -1
              }
              dim {
                size: 64
              }
              dim {
                size: 256
              }
              dim {
                size: 96
              }
            }
          }
        }
      }
      attr {
        key: "data_format"
        value {
          s: "NHWC"
        }
      }
    }
    node {
      name: "conv1/Relu"
      op: "Relu"
      input: "conv1/BiasAdd"
      attr {
        key: "T"
        value {
          type: DT_FLOAT
        }
      }
      attr {
        key: "_output_shapes"
        value {
          list {
            shape {
              dim {
                size: -1
              }
              dim {
                size: 64
              }
              dim {
                size: 256
              }
              dim {
                size: 96
              }
            }
          }
        }
      }
    }
    node {
      name: "maxpool1/MaxPool"
      op: "MaxPool"
      input: "conv1/Relu"
      attr {
        key: "T"
        value {
          type: DT_FLOAT
        }
      }
      attr {
        key: "_output_shapes"
        value {
          list {
            shape {
              dim {
                size: -1
              }
              dim {
                size: 64
              }
              dim {
                size: 128
              }
              dim {
                size: 96
              }
            }
          }
        }
      }
      attr {
        key: "data_format"
        value {
          s: "NHWC"
        }
      }
      attr {
        key: "ksize"
        value {
          list {
            i: 1
            i: 3
            i: 3
            i: 1
          }
        }
      }
      attr {
        key: "padding"
        value {
          s: "SAME"
        }
      }
      attr {
        key: "strides"
        value {
          list {
            i: 1
            i: 1
            i: 2
            i: 1
          }
        }
      }
    }
    node {
      name: "fire2_squeeze/kernel/Initializer/random_uniform/shape"
      op: "Const"
      attr {
        key: "_class"
        value {
          list {
            s: "loc:@fire2_squeeze/kernel"
          }
        }
      }
      attr {
        key: "_output_shapes"
        value {
          list {
            shape {
              dim {
                size: 4
              }
            }
          }
        }
      }
      attr {
        key: "dtype"
        value {
          type: DT_INT32
        }
      }
      attr {
        key: "value"
        value {
          tensor {
            dtype: DT_INT32
            tensor_shape {
              dim {
                size: 4
              }
            }
            tensor_content: "\001\000\000\000\001\000\000\000`\000\000\000\030\000\000\000"
          }
        }
      }
    }
    node {
      name: "fire2_squeeze/kernel/Initializer/random_uniform/min"
      op: "Const"
      attr {
        key: "_class"
        value {
          list {
            s: "loc:@fire2_squeeze/kernel"
          }
        }
      }
      attr {
        key: "_output_shapes"
        value {
          list {
            shape {
            }
          }
        }
      }
      attr {
        key: "dtype"
        value {
          type: DT_FLOAT
        }
      }
      attr {
        key: "value"
        value {
          tensor {
            dtype: DT_FLOAT
            tensor_shape {
            }
            float_val: -0.223606795073
          }
        }
      }
    }
    node {
      name: "fire2_squeeze/kernel/Initializer/random_uniform/max"
      op: "Const"
      attr {
        key: "_class"
        value {
          list {
            s: "loc:@fire2_squeeze/kernel"
          }
        }
      }
      attr {
        key: "_output_shapes"
        value {
          list {
            shape {
            }
          }
        }
      }
      attr {
        key: "dtype"
        value {
          type: DT_FLOAT
        }
      }
      attr {
        key: "value"
        value {
          tensor {
            dtype: DT_FLOAT
            tensor_shape {
            }
            float_val: 0.223606795073
          }
        }
      }
    }
    node {
      name: "fire2_squeeze/kernel/Initializer/random_uniform/RandomUniform"
      op: "RandomUniform"
      input: "fire2_squeeze/kernel/Initializer/random_uniform/shape"
      attr {
        key: "T"
        value {
          type: DT_INT32
        }
      }
      attr {
        key: "_class"
        value {
          list {
            s: "loc:@fire2_squeeze/kernel"
          }
        }
      }
      attr {
        key: "_output_shapes"
        value {
          list {
            shape {
              dim {
                size: 1
              }
              dim {
                size: 1
              }
              dim {
                size: 96
              }
              dim {
                size: 24
              }
            }
          }
        }
      }
      attr {
        key: "dtype"
        value {
          type: DT_FLOAT
        }
      }
      attr {
        key: "seed"
        value {
          i: 0
        }
      }
      attr {
        key: "seed2"
        value {
          i: 0
        }
      }
    }
    node {
      name: "fire2_squeeze/kernel/Initializer/random_uniform/sub"
      op: "Sub"
      input: "fire2_squeeze/kernel/Initializer/random_uniform/max"
      input: "fire2_squeeze/kernel/Initializer/random_uniform/min"
      attr {
        key: "T"
        value {
          type: DT_FLOAT
        }
      }
      attr {
        key: "_class"
        value {
          list {
            s: "loc:@fire2_squeeze/kernel"
          }
        }
      }
      attr {
        key: "_output_shapes"
        value {
          list {
            shape {
            }
          }
        }
      }
    }
    node {
      name: "fire2_squeeze/kernel/Initializer/random_uniform/mul"
      op: "Mul"
      input: "fire2_squeeze/kernel/Initializer/random_uniform/RandomUniform"
      input: "fire2_squeeze/kernel/Initializer/random_uniform/sub"
      attr {
        key: "T"
        value {
          type: DT_FLOAT
        }
      }
      attr {
        key: "_class"
        value {
          list {
            s: "loc:@fire2_squeeze/kernel"
          }
        }
      }
      attr {
        key: "_output_shapes"
        value {
          list {
            shape {
              dim {
                size: 1
              }
              dim {
                size: 1
              }
              dim {
                size: 96
              }
              dim {
                size: 24
              }
            }
          }
        }
      }
    }
    node {
      name: "fire2_squeeze/kernel/Initializer/random_uniform"
      op: "Add"
      input: "fire2_squeeze/kernel/Initializer/random_uniform/mul"
      input: "fire2_squeeze/kernel/Initializer/random_uniform/min"
      attr {
        key: "T"
        value {
          type: DT_FLOAT
        }
      }
      attr {
        key: "_class"
        value {
          list {
            s: "loc:@fire2_squeeze/kernel"
          }
        }
      }
      attr {
        key: "_output_shapes"
        value {
          list {
            shape {
              dim {
                size: 1
              }
              dim {
                size: 1
              }
              dim {
                size: 96
              }
              dim {
                size: 24
              }
            }
          }
        }
      }
    }
    node {
      name: "fire2_squeeze/kernel"
      op: "VariableV2"
      attr {
        key: "_class"
        value {
          list {
            s: "loc:@fire2_squeeze/kernel"
          }
        }
      }
      attr {
        key: "_output_shapes"
        value {
          list {
            shape {
              dim {
                size: 1
              }
              dim {
                size: 1
              }
              dim {
                size: 96
              }
              dim {
                size: 24
              }
            }
          }
        }
      }
      attr {
        key: "container"
        value {
          s: ""
        }
      }
      attr {
        key: "dtype"
        value {
          type: DT_FLOAT
        }
      }
      attr {
        key: "shape"
        value {
          shape {
            dim {
              size: 1
            }
            dim {
              size: 1
            }
            dim {
              size: 96
            }
            dim {
              size: 24
            }
          }
        }
      }
      attr {
        key: "shared_name"
        value {
          s: ""
        }
      }
    }
    node {
      name: "fire2_squeeze/kernel/Assign"
      op: "Assign"
      input: "fire2_squeeze/kernel"
      input: "fire2_squeeze/kernel/Initializer/random_uniform"
      attr {
        key: "T"
        value {
          type: DT_FLOAT
        }
      }
      attr {
        key: "_class"
        value {
          list {
            s: "loc:@fire2_squeeze/kernel"
          }
        }
      }
      attr {
        key: "_output_shapes"
        value {
          list {
            shape {
              dim {
                size: 1
              }
              dim {
                size: 1
              }
              dim {
                size: 96
              }
              dim {
                size: 24
              }
            }
          }
        }
      }
      attr {
        key: "use_locking"
        value {
          b: true
        }
      }
      attr {
        key: "validate_shape"
        value {
          b: true
        }
      }
    }
    node {
      name: "fire2_squeeze/kernel/read"
      op: "Identity"
      input: "fire2_squeeze/kernel"
      attr {
        key: "T"
        value {
          type: DT_FLOAT
        }
      }
      attr {
        key: "_class"
        value {
          list {
            s: "loc:@fire2_squeeze/kernel"
          }
        }
      }
      attr {
        key: "_output_shapes"
        value {
          list {
            shape {
              dim {
                size: 1
              }
              dim {
                size: 1
              }
              dim {
                size: 96
              }
              dim {
                size: 24
              }
            }
          }
        }
      }
    }
    node {
      name: "fire2_squeeze/bias/Initializer/zeros"
      op: "Const"
      attr {
        key: "_class"
        value {
          list {
            s: "loc:@fire2_squeeze/bias"
          }
        }
      }
      attr {
        key: "_output_shapes"
        value {
          list {
            shape {
              dim {
                size: 24
              }
            }
          }
        }
      }
      attr {
        key: "dtype"
        value {
          type: DT_FLOAT
        }
      }
      attr {
        key: "value"
        value {
          tensor {
            dtype: DT_FLOAT
            tensor_shape {
              dim {
                size: 24
              }
            }
            float_val: 0.0
          }
        }
      }
    }
    node {
      name: "fire2_squeeze/bias"
      op: "VariableV2"
      attr {
        key: "_class"
        value {
          list {
            s: "loc:@fire2_squeeze/bias"
          }
        }
      }
      attr {
        key: "_output_shapes"
        value {
          list {
            shape {
              dim {
                size: 24
              }
            }
          }
        }
      }
      attr {
        key: "container"
        value {
          s: ""
        }
      }
      attr {
        key: "dtype"
        value {
          type: DT_FLOAT
        }
      }
      attr {
        key: "shape"
        value {
          shape {
            dim {
              size: 24
            }
          }
        }
      }
      attr {
        key: "shared_name"
        value {
          s: ""
        }
      }
    }
    node {
      name: "fire2_squeeze/bias/Assign"
      op: "Assign"
      input: "fire2_squeeze/bias"
      input: "fire2_squeeze/bias/Initializer/zeros"
      attr {
        key: "T"
        value {
          type: DT_FLOAT
        }
      }
      attr {
        key: "_class"
        value {
          list {
            s: "loc:@fire2_squeeze/bias"
          }
        }
      }
      attr {
        key: "_output_shapes"
        value {
          list {
            shape {
              dim {
                size: 24
              }
            }
          }
        }
      }
      attr {
        key: "use_locking"
        value {
          b: true
        }
      }
      attr {
        key: "validate_shape"
        value {
          b: true
        }
      }
    }
    node {
      name: "fire2_squeeze/bias/read"
      op: "Identity"
      input: "fire2_squeeze/bias"
      attr {
        key: "T"
        value {
          type: DT_FLOAT
        }
      }
      attr {
        key: "_class"
        value {
          list {
            s: "loc:@fire2_squeeze/bias"
          }
        }
      }
      attr {
        key: "_output_shapes"
        value {
          list {
            shape {
              dim {
                size: 24
              }
            }
          }
        }
      }
    }
    node {
      name: "fire2_squeeze/dilation_rate"
      op: "Const"
      attr {
        key: "_output_shapes"
        value {
          list {
            shape {
              dim {
                size: 2
              }
            }
          }
        }
      }
      attr {
        key: "dtype"
        value {
          type: DT_INT32
        }
      }
      attr {
        key: "value"
        value {
          tensor {
            dtype: DT_INT32
            tensor_shape {
              dim {
                size: 2
              }
            }
            tensor_content: "\001\000\000\000\001\000\000\000"
          }
        }
      }
    }
    node {
      name: "fire2_squeeze/Conv2D"
      op: "Conv2D"
      input: "maxpool1/MaxPool"
      input: "fire2_squeeze/kernel/read"
      attr {
        key: "T"
        value {
          type: DT_FLOAT
        }
      }
      attr {
        key: "_output_shapes"
        value {
          list {
            shape {
              dim {
                size: -1
              }
              dim {
                size: 64
              }
              dim {
                size: 128
              }
              dim {
                size: 24
              }
            }
          }
        }
      }
      attr {
        key: "data_format"
        value {
          s: "NHWC"
        }
      }
      attr {
        key: "padding"
        value {
          s: "SAME"
        }
      }
      attr {
        key: "strides"
        value {
          list {
            i: 1
            i: 1
            i: 1
            i: 1
          }
        }
      }
      attr {
        key: "use_cudnn_on_gpu"
        value {
          b: true
        }
      }
    }
    node {
      name: "fire2_squeeze/BiasAdd"
      op: "BiasAdd"
      input: "fire2_squeeze/Conv2D"
      input: "fire2_squeeze/bias/read"
      attr {
        key: "T"
        value {
          type: DT_FLOAT
        }
      }
      attr {
        key: "_output_shapes"
        value {
          list {
            shape {
              dim {
                size: -1
              }
              dim {
                size: 64
              }
              dim {
                size: 128
              }
              dim {
                size: 24
              }
            }
          }
        }
      }
      attr {
        key: "data_format"
        value {
          s: "NHWC"
        }
      }
    }
    node {
      name: "fire2_squeeze/Relu"
      op: "Relu"
      input: "fire2_squeeze/BiasAdd"
      attr {
        key: "T"
        value {
          type: DT_FLOAT
        }
      }
      attr {
        key: "_output_shapes"
        value {
          list {
            shape {
              dim {
                size: -1
              }
              dim {
                size: 64
              }
              dim {
                size: 128
              }
              dim {
                size: 24
              }
            }
          }
        }
      }
    }
    node {
      name: "fire2_expand_1_3x3/kernel/Initializer/random_uniform/shape"
      op: "Const"
      attr {
        key: "_class"
        value {
          list {
            s: "loc:@fire2_expand_1_3x3/kernel"
          }
        }
      }
      attr {
        key: "_output_shapes"
        value {
          list {
            shape {
              dim {
                size: 4
              }
            }
          }
        }
      }
      attr {
        key: "dtype"
        value {
          type: DT_INT32
        }
      }
      attr {
        key: "value"
        value {
          tensor {
            dtype: DT_INT32
            tensor_shape {
              dim {
                size: 4
              }
            }
            tensor_content: "\003\000\000\000\003\000\000\000\030\000\000\0000\000\000\000"
          }
        }
      }
    }
    node {
      name: "fire2_expand_1_3x3/kernel/Initializer/random_uniform/min"
      op: "Const"
      attr {
        key: "_class"
        value {
          list {
            s: "loc:@fire2_expand_1_3x3/kernel"
          }
        }
      }
      attr {
        key: "_output_shapes"
        value {
          list {
            shape {
            }
          }
        }
      }
      attr {
        key: "dtype"
        value {
          type: DT_FLOAT
        }
      }
      attr {
        key: "value"
        value {
          tensor {
            dtype: DT_FLOAT
            tensor_shape {
            }
            float_val: -0.0962250456214
          }
        }
      }
    }
    node {
      name: "fire2_expand_1_3x3/kernel/Initializer/random_uniform/max"
      op: "Const"
      attr {
        key: "_class"
        value {
          list {
            s: "loc:@fire2_expand_1_3x3/kernel"
          }
        }
      }
      attr {
        key: "_output_shapes"
        value {
          list {
            shape {
            }
          }
        }
      }
      attr {
        key: "dtype"
        value {
          type: DT_FLOAT
        }
      }
      attr {
        key: "value"
        value {
          tensor {
            dtype: DT_FLOAT
            tensor_shape {
            }
            float_val: 0.0962250456214
          }
        }
      }
    }
    node {
      name: "fire2_expand_1_3x3/kernel/Initializer/random_uniform/RandomUniform"
      op: "RandomUniform"
      input: "fire2_expand_1_3x3/kernel/Initializer/random_uniform/shape"
      attr {
        key: "T"
        value {
          type: DT_INT32
        }
      }
      attr {
        key: "_class"
        value {
          list {
            s: "loc:@fire2_expand_1_3x3/kernel"
          }
        }
      }
      attr {
        key: "_output_shapes"
        value {
          list {
            shape {
              dim {
                size: 3
              }
              dim {
                size: 3
              }
              dim {
                size: 24
              }
              dim {
                size: 48
              }
            }
          }
        }
      }
      attr {
        key: "dtype"
        value {
          type: DT_FLOAT
        }
      }
      attr {
        key: "seed"
        value {
          i: 0
        }
      }
      attr {
        key: "seed2"
        value {
          i: 0
        }
      }
    }
    node {
      name: "fire2_expand_1_3x3/kernel/Initializer/random_uniform/sub"
      op: "Sub"
      input: "fire2_expand_1_3x3/kernel/Initializer/random_uniform/max"
      input: "fire2_expand_1_3x3/kernel/Initializer/random_uniform/min"
      attr {
        key: "T"
        value {
          type: DT_FLOAT
        }
      }
      attr {
        key: "_class"
        value {
          list {
            s: "loc:@fire2_expand_1_3x3/kernel"
          }
        }
      }
      attr {
        key: "_output_shapes"
        value {
          list {
            shape {
            }
          }
        }
      }
    }
    node {
      name: "fire2_expand_1_3x3/kernel/Initializer/random_uniform/mul"
      op: "Mul"
      input: "fire2_expand_1_3x3/kernel/Initializer/random_uniform/RandomUniform"
      input: "fire2_expand_1_3x3/kernel/Initializer/random_uniform/sub"
      attr {
        key: "T"
        value {
          type: DT_FLOAT
        }
      }
      attr {
        key: "_class"
        value {
          list {
            s: "loc:@fire2_expand_1_3x3/kernel"
          }
        }
      }
      attr {
        key: "_output_shapes"
        value {
          list {
            shape {
              dim {
                size: 3
              }
              dim {
                size: 3
              }
              dim {
                size: 24
              }
              dim {
                size: 48
              }
            }
          }
        }
      }
    }
    node {
      name: "fire2_expand_1_3x3/kernel/Initializer/random_uniform"
      op: "Add"
      input: "fire2_expand_1_3x3/kernel/Initializer/random_uniform/mul"
      input: "fire2_expand_1_3x3/kernel/Initializer/random_uniform/min"
      attr {
        key: "T"
        value {
          type: DT_FLOAT
        }
      }
      attr {
        key: "_class"
        value {
          list {
            s: "loc:@fire2_expand_1_3x3/kernel"
          }
        }
      }
      attr {
        key: "_output_shapes"
        value {
          list {
            shape {
              dim {
                size: 3
              }
              dim {
                size: 3
              }
              dim {
                size: 24
              }
              dim {
                size: 48
              }
            }
          }
        }
      }
    }
    node {
      name: "fire2_expand_1_3x3/kernel"
      op: "VariableV2"
      attr {
        key: "_class"
        value {
          list {
            s: "loc:@fire2_expand_1_3x3/kernel"
          }
        }
      }
      attr {
        key: "_output_shapes"
        value {
          list {
            shape {
              dim {
                size: 3
              }
              dim {
                size: 3
              }
              dim {
                size: 24
              }
              dim {
                size: 48
              }
            }
          }
        }
      }
      attr {
        key: "container"
        value {
          s: ""
        }
      }
      attr {
        key: "dtype"
        value {
          type: DT_FLOAT
        }
      }
      attr {
        key: "shape"
        value {
          shape {
            dim {
              size: 3
            }
            dim {
              size: 3
            }
            dim {
              size: 24
            }
            dim {
              size: 48
            }
          }
        }
      }
      attr {
        key: "shared_name"
        value {
          s: ""
        }
      }
    }
    node {
      name: "fire2_expand_1_3x3/kernel/Assign"
      op: "Assign"
      input: "fire2_expand_1_3x3/kernel"
      input: "fire2_expand_1_3x3/kernel/Initializer/random_uniform"
      attr {
        key: "T"
        value {
          type: DT_FLOAT
        }
      }
      attr {
        key: "_class"
        value {
          list {
            s: "loc:@fire2_expand_1_3x3/kernel"
          }
        }
      }
      attr {
        key: "_output_shapes"
        value {
          list {
            shape {
              dim {
                size: 3
              }
              dim {
                size: 3
              }
              dim {
                size: 24
              }
              dim {
                size: 48
              }
            }
          }
        }
      }
      attr {
        key: "use_locking"
        value {
          b: true
        }
      }
      attr {
        key: "validate_shape"
        value {
          b: true
        }
      }
    }
    node {
      name: "fire2_expand_1_3x3/kernel/read"
      op: "Identity"
      input: "fire2_expand_1_3x3/kernel"
      attr {
        key: "T"
        value {
          type: DT_FLOAT
        }
      }
      attr {
        key: "_class"
        value {
          list {
            s: "loc:@fire2_expand_1_3x3/kernel"
          }
        }
      }
      attr {
        key: "_output_shapes"
        value {
          list {
            shape {
              dim {
                size: 3
              }
              dim {
                size: 3
              }
              dim {
                size: 24
              }
              dim {
                size: 48
              }
            }
          }
        }
      }
    }
    node {
      name: "fire2_expand_1_3x3/bias/Initializer/zeros"
      op: "Const"
      attr {
        key: "_class"
        value {
          list {
            s: "loc:@fire2_expand_1_3x3/bias"
          }
        }
      }
      attr {
        key: "_output_shapes"
        value {
          list {
            shape {
              dim {
                size: 48
              }
            }
          }
        }
      }
      attr {
        key: "dtype"
        value {
          type: DT_FLOAT
        }
      }
      attr {
        key: "value"
        value {
          tensor {
            dtype: DT_FLOAT
            tensor_shape {
              dim {
                size: 48
              }
            }
            float_val: 0.0
          }
        }
      }
    }
    node {
      name: "fire2_expand_1_3x3/bias"
      op: "VariableV2"
      attr {
        key: "_class"
        value {
          list {
            s: "loc:@fire2_expand_1_3x3/bias"
          }
        }
      }
      attr {
        key: "_output_shapes"
        value {
          list {
            shape {
              dim {
                size: 48
              }
            }
          }
        }
      }
      attr {
        key: "container"
        value {
          s: ""
        }
      }
      attr {
        key: "dtype"
        value {
          type: DT_FLOAT
        }
      }
      attr {
        key: "shape"
        value {
          shape {
            dim {
              size: 48
            }
          }
        }
      }
      attr {
        key: "shared_name"
        value {
          s: ""
        }
      }
    }
    node {
      name: "fire2_expand_1_3x3/bias/Assign"
      op: "Assign"
      input: "fire2_expand_1_3x3/bias"
      input: "fire2_expand_1_3x3/bias/Initializer/zeros"
      attr {
        key: "T"
        value {
          type: DT_FLOAT
        }
      }
      attr {
        key: "_class"
        value {
          list {
            s: "loc:@fire2_expand_1_3x3/bias"
          }
        }
      }
      attr {
        key: "_output_shapes"
        value {
          list {
            shape {
              dim {
                size: 48
              }
            }
          }
        }
      }
      attr {
        key: "use_locking"
        value {
          b: true
        }
      }
      attr {
        key: "validate_shape"
        value {
          b: true
        }
      }
    }
    node {
      name: "fire2_expand_1_3x3/bias/read"
      op: "Identity"
      input: "fire2_expand_1_3x3/bias"
      attr {
        key: "T"
        value {
          type: DT_FLOAT
        }
      }
      attr {
        key: "_class"
        value {
          list {
            s: "loc:@fire2_expand_1_3x3/bias"
          }
        }
      }
      attr {
        key: "_output_shapes"
        value {
          list {
            shape {
              dim {
                size: 48
              }
            }
          }
        }
      }
    }
    node {
      name: "fire2_expand_1_3x3/dilation_rate"
      op: "Const"
      attr {
        key: "_output_shapes"
        value {
          list {
            shape {
              dim {
                size: 2
              }
            }
          }
        }
      }
      attr {
        key: "dtype"
        value {
          type: DT_INT32
        }
      }
      attr {
        key: "value"
        value {
          tensor {
            dtype: DT_INT32
            tensor_shape {
              dim {
                size: 2
              }
            }
            tensor_content: "\001\000\000\000\001\000\000\000"
          }
        }
      }
    }
    node {
      name: "fire2_expand_1_3x3/Conv2D"
      op: "Conv2D"
      input: "fire2_squeeze/Relu"
      input: "fire2_expand_1_3x3/kernel/read"
      attr {
        key: "T"
        value {
          type: DT_FLOAT
        }
      }
      attr {
        key: "_output_shapes"
        value {
          list {
            shape {
              dim {
                size: -1
              }
              dim {
                size: 64
              }
              dim {
                size: 128
              }
              dim {
                size: 48
              }
            }
          }
        }
      }
      attr {
        key: "data_format"
        value {
          s: "NHWC"
        }
      }
      attr {
        key: "padding"
        value {
          s: "SAME"
        }
      }
      attr {
        key: "strides"
        value {
          list {
            i: 1
            i: 1
            i: 1
            i: 1
          }
        }
      }
      attr {
        key: "use_cudnn_on_gpu"
        value {
          b: true
        }
      }
    }
    node {
      name: "fire2_expand_1_3x3/BiasAdd"
      op: "BiasAdd"
      input: "fire2_expand_1_3x3/Conv2D"
      input: "fire2_expand_1_3x3/bias/read"
      attr {
        key: "T"
        value {
          type: DT_FLOAT
        }
      }
      attr {
        key: "_output_shapes"
        value {
          list {
            shape {
              dim {
                size: -1
              }
              dim {
                size: 64
              }
              dim {
                size: 128
              }
              dim {
                size: 48
              }
            }
          }
        }
      }
      attr {
        key: "data_format"
        value {
          s: "NHWC"
        }
      }
    }
    node {
      name: "fire2_expand_1_3x3/Relu"
      op: "Relu"
      input: "fire2_expand_1_3x3/BiasAdd"
      attr {
        key: "T"
        value {
          type: DT_FLOAT
        }
      }
      attr {
        key: "_output_shapes"
        value {
          list {
            shape {
              dim {
                size: -1
              }
              dim {
                size: 64
              }
              dim {
                size: 128
              }
              dim {
                size: 48
              }
            }
          }
        }
      }
    }
    node {
      name: "fire2_expand_2_1x1/kernel/Initializer/random_uniform/shape"
      op: "Const"
      attr {
        key: "_class"
        value {
          list {
            s: "loc:@fire2_expand_2_1x1/kernel"
          }
        }
      }
      attr {
        key: "_output_shapes"
        value {
          list {
            shape {
              dim {
                size: 4
              }
            }
          }
        }
      }
      attr {
        key: "dtype"
        value {
          type: DT_INT32
        }
      }
      attr {
        key: "value"
        value {
          tensor {
            dtype: DT_INT32
            tensor_shape {
              dim {
                size: 4
              }
            }
            tensor_content: "\001\000\000\000\001\000\000\000\030\000\000\0000\000\000\000"
          }
        }
      }
    }
    node {
      name: "fire2_expand_2_1x1/kernel/Initializer/random_uniform/min"
      op: "Const"
      attr {
        key: "_class"
        value {
          list {
            s: "loc:@fire2_expand_2_1x1/kernel"
          }
        }
      }
      attr {
        key: "_output_shapes"
        value {
          list {
            shape {
            }
          }
        }
      }
      attr {
        key: "dtype"
        value {
          type: DT_FLOAT
        }
      }
      attr {
        key: "value"
        value {
          tensor {
            dtype: DT_FLOAT
            tensor_shape {
            }
            float_val: -0.288675129414
          }
        }
      }
    }
    node {
      name: "fire2_expand_2_1x1/kernel/Initializer/random_uniform/max"
      op: "Const"
      attr {
        key: "_class"
        value {
          list {
            s: "loc:@fire2_expand_2_1x1/kernel"
          }
        }
      }
      attr {
        key: "_output_shapes"
        value {
          list {
            shape {
            }
          }
        }
      }
      attr {
        key: "dtype"
        value {
          type: DT_FLOAT
        }
      }
      attr {
        key: "value"
        value {
          tensor {
            dtype: DT_FLOAT
            tensor_shape {
            }
            float_val: 0.288675129414
          }
        }
      }
    }
    node {
      name: "fire2_expand_2_1x1/kernel/Initializer/random_uniform/RandomUniform"
      op: "RandomUniform"
      input: "fire2_expand_2_1x1/kernel/Initializer/random_uniform/shape"
      attr {
        key: "T"
        value {
          type: DT_INT32
        }
      }
      attr {
        key: "_class"
        value {
          list {
            s: "loc:@fire2_expand_2_1x1/kernel"
          }
        }
      }
      attr {
        key: "_output_shapes"
        value {
          list {
            shape {
              dim {
                size: 1
              }
              dim {
                size: 1
              }
              dim {
                size: 24
              }
              dim {
                size: 48
              }
            }
          }
        }
      }
      attr {
        key: "dtype"
        value {
          type: DT_FLOAT
        }
      }
      attr {
        key: "seed"
        value {
          i: 0
        }
      }
      attr {
        key: "seed2"
        value {
          i: 0
        }
      }
    }
    node {
      name: "fire2_expand_2_1x1/kernel/Initializer/random_uniform/sub"
      op: "Sub"
      input: "fire2_expand_2_1x1/kernel/Initializer/random_uniform/max"
      input: "fire2_expand_2_1x1/kernel/Initializer/random_uniform/min"
      attr {
        key: "T"
        value {
          type: DT_FLOAT
        }
      }
      attr {
        key: "_class"
        value {
          list {
            s: "loc:@fire2_expand_2_1x1/kernel"
          }
        }
      }
      attr {
        key: "_output_shapes"
        value {
          list {
            shape {
            }
          }
        }
      }
    }
    node {
      name: "fire2_expand_2_1x1/kernel/Initializer/random_uniform/mul"
      op: "Mul"
      input: "fire2_expand_2_1x1/kernel/Initializer/random_uniform/RandomUniform"
      input: "fire2_expand_2_1x1/kernel/Initializer/random_uniform/sub"
      attr {
        key: "T"
        value {
          type: DT_FLOAT
        }
      }
      attr {
        key: "_class"
        value {
          list {
            s: "loc:@fire2_expand_2_1x1/kernel"
          }
        }
      }
      attr {
        key: "_output_shapes"
        value {
          list {
            shape {
              dim {
                size: 1
              }
              dim {
                size: 1
              }
              dim {
                size: 24
              }
              dim {
                size: 48
              }
            }
          }
        }
      }
    }
    node {
      name: "fire2_expand_2_1x1/kernel/Initializer/random_uniform"
      op: "Add"
      input: "fire2_expand_2_1x1/kernel/Initializer/random_uniform/mul"
      input: "fire2_expand_2_1x1/kernel/Initializer/random_uniform/min"
      attr {
        key: "T"
        value {
          type: DT_FLOAT
        }
      }
      attr {
        key: "_class"
        value {
          list {
            s: "loc:@fire2_expand_2_1x1/kernel"
          }
        }
      }
      attr {
        key: "_output_shapes"
        value {
          list {
            shape {
              dim {
                size: 1
              }
              dim {
                size: 1
              }
              dim {
                size: 24
              }
              dim {
                size: 48
              }
            }
          }
        }
      }
    }
    node {
      name: "fire2_expand_2_1x1/kernel"
      op: "VariableV2"
      attr {
        key: "_class"
        value {
          list {
            s: "loc:@fire2_expand_2_1x1/kernel"
          }
        }
      }
      attr {
        key: "_output_shapes"
        value {
          list {
            shape {
              dim {
                size: 1
              }
              dim {
                size: 1
              }
              dim {
                size: 24
              }
              dim {
                size: 48
              }
            }
          }
        }
      }
      attr {
        key: "container"
        value {
          s: ""
        }
      }
      attr {
        key: "dtype"
        value {
          type: DT_FLOAT
        }
      }
      attr {
        key: "shape"
        value {
          shape {
            dim {
              size: 1
            }
            dim {
              size: 1
            }
            dim {
              size: 24
            }
            dim {
              size: 48
            }
          }
        }
      }
      attr {
        key: "shared_name"
        value {
          s: ""
        }
      }
    }
    node {
      name: "fire2_expand_2_1x1/kernel/Assign"
      op: "Assign"
      input: "fire2_expand_2_1x1/kernel"
      input: "fire2_expand_2_1x1/kernel/Initializer/random_uniform"
      attr {
        key: "T"
        value {
          type: DT_FLOAT
        }
      }
      attr {
        key: "_class"
        value {
          list {
            s: "loc:@fire2_expand_2_1x1/kernel"
          }
        }
      }
      attr {
        key: "_output_shapes"
        value {
          list {
            shape {
              dim {
                size: 1
              }
              dim {
                size: 1
              }
              dim {
                size: 24
              }
              dim {
                size: 48
              }
            }
          }
        }
      }
      attr {
        key: "use_locking"
        value {
          b: true
        }
      }
      attr {
        key: "validate_shape"
        value {
          b: true
        }
      }
    }
    node {
      name: "fire2_expand_2_1x1/kernel/read"
      op: "Identity"
      input: "fire2_expand_2_1x1/kernel"
      attr {
        key: "T"
        value {
          type: DT_FLOAT
        }
      }
      attr {
        key: "_class"
        value {
          list {
            s: "loc:@fire2_expand_2_1x1/kernel"
          }
        }
      }
      attr {
        key: "_output_shapes"
        value {
          list {
            shape {
              dim {
                size: 1
              }
              dim {
                size: 1
              }
              dim {
                size: 24
              }
              dim {
                size: 48
              }
            }
          }
        }
      }
    }
    node {
      name: "fire2_expand_2_1x1/bias/Initializer/zeros"
      op: "Const"
      attr {
        key: "_class"
        value {
          list {
            s: "loc:@fire2_expand_2_1x1/bias"
          }
        }
      }
      attr {
        key: "_output_shapes"
        value {
          list {
            shape {
              dim {
                size: 48
              }
            }
          }
        }
      }
      attr {
        key: "dtype"
        value {
          type: DT_FLOAT
        }
      }
      attr {
        key: "value"
        value {
          tensor {
            dtype: DT_FLOAT
            tensor_shape {
              dim {
                size: 48
              }
            }
            float_val: 0.0
          }
        }
      }
    }
    node {
      name: "fire2_expand_2_1x1/bias"
      op: "VariableV2"
      attr {
        key: "_class"
        value {
          list {
            s: "loc:@fire2_expand_2_1x1/bias"
          }
        }
      }
      attr {
        key: "_output_shapes"
        value {
          list {
            shape {
              dim {
                size: 48
              }
            }
          }
        }
      }
      attr {
        key: "container"
        value {
          s: ""
        }
      }
      attr {
        key: "dtype"
        value {
          type: DT_FLOAT
        }
      }
      attr {
        key: "shape"
        value {
          shape {
            dim {
              size: 48
            }
          }
        }
      }
      attr {
        key: "shared_name"
        value {
          s: ""
        }
      }
    }
    node {
      name: "fire2_expand_2_1x1/bias/Assign"
      op: "Assign"
      input: "fire2_expand_2_1x1/bias"
      input: "fire2_expand_2_1x1/bias/Initializer/zeros"
      attr {
        key: "T"
        value {
          type: DT_FLOAT
        }
      }
      attr {
        key: "_class"
        value {
          list {
            s: "loc:@fire2_expand_2_1x1/bias"
          }
        }
      }
      attr {
        key: "_output_shapes"
        value {
          list {
            shape {
              dim {
                size: 48
              }
            }
          }
        }
      }
      attr {
        key: "use_locking"
        value {
          b: true
        }
      }
      attr {
        key: "validate_shape"
        value {
          b: true
        }
      }
    }
    node {
      name: "fire2_expand_2_1x1/bias/read"
      op: "Identity"
      input: "fire2_expand_2_1x1/bias"
      attr {
        key: "T"
        value {
          type: DT_FLOAT
        }
      }
      attr {
        key: "_class"
        value {
          list {
            s: "loc:@fire2_expand_2_1x1/bias"
          }
        }
      }
      attr {
        key: "_output_shapes"
        value {
          list {
            shape {
              dim {
                size: 48
              }
            }
          }
        }
      }
    }
    node {
      name: "fire2_expand_2_1x1/dilation_rate"
      op: "Const"
      attr {
        key: "_output_shapes"
        value {
          list {
            shape {
              dim {
                size: 2
              }
            }
          }
        }
      }
      attr {
        key: "dtype"
        value {
          type: DT_INT32
        }
      }
      attr {
        key: "value"
        value {
          tensor {
            dtype: DT_INT32
            tensor_shape {
              dim {
                size: 2
              }
            }
            tensor_content: "\001\000\000\000\001\000\000\000"
          }
        }
      }
    }
    node {
      name: "fire2_expand_2_1x1/Conv2D"
      op: "Conv2D"
      input: "fire2_squeeze/Relu"
      input: "fire2_expand_2_1x1/kernel/read"
      attr {
        key: "T"
        value {
          type: DT_FLOAT
        }
      }
      attr {
        key: "_output_shapes"
        value {
          list {
            shape {
              dim {
                size: -1
              }
              dim {
                size: 64
              }
              dim {
                size: 128
              }
              dim {
                size: 48
              }
            }
          }
        }
      }
      attr {
        key: "data_format"
        value {
          s: "NHWC"
        }
      }
      attr {
        key: "padding"
        value {
          s: "SAME"
        }
      }
      attr {
        key: "strides"
        value {
          list {
            i: 1
            i: 1
            i: 1
            i: 1
          }
        }
      }
      attr {
        key: "use_cudnn_on_gpu"
        value {
          b: true
        }
      }
    }
    node {
      name: "fire2_expand_2_1x1/BiasAdd"
      op: "BiasAdd"
      input: "fire2_expand_2_1x1/Conv2D"
      input: "fire2_expand_2_1x1/bias/read"
      attr {
        key: "T"
        value {
          type: DT_FLOAT
        }
      }
      attr {
        key: "_output_shapes"
        value {
          list {
            shape {
              dim {
                size: -1
              }
              dim {
                size: 64
              }
              dim {
                size: 128
              }
              dim {
                size: 48
              }
            }
          }
        }
      }
      attr {
        key: "data_format"
        value {
          s: "NHWC"
        }
      }
    }
    node {
      name: "fire2_expand_2_1x1/Relu"
      op: "Relu"
      input: "fire2_expand_2_1x1/BiasAdd"
      attr {
        key: "T"
        value {
          type: DT_FLOAT
        }
      }
      attr {
        key: "_output_shapes"
        value {
          list {
            shape {
              dim {
                size: -1
              }
              dim {
                size: 64
              }
              dim {
                size: 128
              }
              dim {
                size: 48
              }
            }
          }
        }
      }
    }
    node {
      name: "concat/axis"
      op: "Const"
      attr {
        key: "_output_shapes"
        value {
          list {
            shape {
            }
          }
        }
      }
      attr {
        key: "dtype"
        value {
          type: DT_INT32
        }
      }
      attr {
        key: "value"
        value {
          tensor {
            dtype: DT_INT32
            tensor_shape {
            }
            int_val: -1
          }
        }
      }
    }
    node {
      name: "concat"
      op: "ConcatV2"
      input: "fire2_expand_1_3x3/Relu"
      input: "fire2_expand_2_1x1/Relu"
      input: "concat/axis"
      attr {
        key: "N"
        value {
          i: 2
        }
      }
      attr {
        key: "T"
        value {
          type: DT_FLOAT
        }
      }
      attr {
        key: "Tidx"
        value {
          type: DT_INT32
        }
      }
      attr {
        key: "_output_shapes"
        value {
          list {
            shape {
              dim {
                size: -1
              }
              dim {
                size: 64
              }
              dim {
                size: 128
              }
              dim {
                size: 96
              }
            }
          }
        }
      }
    }
    node {
      name: "fire3_squeeze/kernel/Initializer/random_uniform/shape"
      op: "Const"
      attr {
        key: "_class"
        value {
          list {
            s: "loc:@fire3_squeeze/kernel"
          }
        }
      }
      attr {
        key: "_output_shapes"
        value {
          list {
            shape {
              dim {
                size: 4
              }
            }
          }
        }
      }
      attr {
        key: "dtype"
        value {
          type: DT_INT32
        }
      }
      attr {
        key: "value"
        value {
          tensor {
            dtype: DT_INT32
            tensor_shape {
              dim {
                size: 4
              }
            }
            tensor_content: "\001\000\000\000\001\000\000\000`\000\000\000\030\000\000\000"
          }
        }
      }
    }
    node {
      name: "fire3_squeeze/kernel/Initializer/random_uniform/min"
      op: "Const"
      attr {
        key: "_class"
        value {
          list {
            s: "loc:@fire3_squeeze/kernel"
          }
        }
      }
      attr {
        key: "_output_shapes"
        value {
          list {
            shape {
            }
          }
        }
      }
      attr {
        key: "dtype"
        value {
          type: DT_FLOAT
        }
      }
      attr {
        key: "value"
        value {
          tensor {
            dtype: DT_FLOAT
            tensor_shape {
            }
            float_val: -0.223606795073
          }
        }
      }
    }
    node {
      name: "fire3_squeeze/kernel/Initializer/random_uniform/max"
      op: "Const"
      attr {
        key: "_class"
        value {
          list {
            s: "loc:@fire3_squeeze/kernel"
          }
        }
      }
      attr {
        key: "_output_shapes"
        value {
          list {
            shape {
            }
          }
        }
      }
      attr {
        key: "dtype"
        value {
          type: DT_FLOAT
        }
      }
      attr {
        key: "value"
        value {
          tensor {
            dtype: DT_FLOAT
            tensor_shape {
            }
            float_val: 0.223606795073
          }
        }
      }
    }
    node {
      name: "fire3_squeeze/kernel/Initializer/random_uniform/RandomUniform"
      op: "RandomUniform"
      input: "fire3_squeeze/kernel/Initializer/random_uniform/shape"
      attr {
        key: "T"
        value {
          type: DT_INT32
        }
      }
      attr {
        key: "_class"
        value {
          list {
            s: "loc:@fire3_squeeze/kernel"
          }
        }
      }
      attr {
        key: "_output_shapes"
        value {
          list {
            shape {
              dim {
                size: 1
              }
              dim {
                size: 1
              }
              dim {
                size: 96
              }
              dim {
                size: 24
              }
            }
          }
        }
      }
      attr {
        key: "dtype"
        value {
          type: DT_FLOAT
        }
      }
      attr {
        key: "seed"
        value {
          i: 0
        }
      }
      attr {
        key: "seed2"
        value {
          i: 0
        }
      }
    }
    node {
      name: "fire3_squeeze/kernel/Initializer/random_uniform/sub"
      op: "Sub"
      input: "fire3_squeeze/kernel/Initializer/random_uniform/max"
      input: "fire3_squeeze/kernel/Initializer/random_uniform/min"
      attr {
        key: "T"
        value {
          type: DT_FLOAT
        }
      }
      attr {
        key: "_class"
        value {
          list {
            s: "loc:@fire3_squeeze/kernel"
          }
        }
      }
      attr {
        key: "_output_shapes"
        value {
          list {
            shape {
            }
          }
        }
      }
    }
    node {
      name: "fire3_squeeze/kernel/Initializer/random_uniform/mul"
      op: "Mul"
      input: "fire3_squeeze/kernel/Initializer/random_uniform/RandomUniform"
      input: "fire3_squeeze/kernel/Initializer/random_uniform/sub"
      attr {
        key: "T"
        value {
          type: DT_FLOAT
        }
      }
      attr {
        key: "_class"
        value {
          list {
            s: "loc:@fire3_squeeze/kernel"
          }
        }
      }
      attr {
        key: "_output_shapes"
        value {
          list {
            shape {
              dim {
                size: 1
              }
              dim {
                size: 1
              }
              dim {
                size: 96
              }
              dim {
                size: 24
              }
            }
          }
        }
      }
    }
    node {
      name: "fire3_squeeze/kernel/Initializer/random_uniform"
      op: "Add"
      input: "fire3_squeeze/kernel/Initializer/random_uniform/mul"
      input: "fire3_squeeze/kernel/Initializer/random_uniform/min"
      attr {
        key: "T"
        value {
          type: DT_FLOAT
        }
      }
      attr {
        key: "_class"
        value {
          list {
            s: "loc:@fire3_squeeze/kernel"
          }
        }
      }
      attr {
        key: "_output_shapes"
        value {
          list {
            shape {
              dim {
                size: 1
              }
              dim {
                size: 1
              }
              dim {
                size: 96
              }
              dim {
                size: 24
              }
            }
          }
        }
      }
    }
    node {
      name: "fire3_squeeze/kernel"
      op: "VariableV2"
      attr {
        key: "_class"
        value {
          list {
            s: "loc:@fire3_squeeze/kernel"
          }
        }
      }
      attr {
        key: "_output_shapes"
        value {
          list {
            shape {
              dim {
                size: 1
              }
              dim {
                size: 1
              }
              dim {
                size: 96
              }
              dim {
                size: 24
              }
            }
          }
        }
      }
      attr {
        key: "container"
        value {
          s: ""
        }
      }
      attr {
        key: "dtype"
        value {
          type: DT_FLOAT
        }
      }
      attr {
        key: "shape"
        value {
          shape {
            dim {
              size: 1
            }
            dim {
              size: 1
            }
            dim {
              size: 96
            }
            dim {
              size: 24
            }
          }
        }
      }
      attr {
        key: "shared_name"
        value {
          s: ""
        }
      }
    }
    node {
      name: "fire3_squeeze/kernel/Assign"
      op: "Assign"
      input: "fire3_squeeze/kernel"
      input: "fire3_squeeze/kernel/Initializer/random_uniform"
      attr {
        key: "T"
        value {
          type: DT_FLOAT
        }
      }
      attr {
        key: "_class"
        value {
          list {
            s: "loc:@fire3_squeeze/kernel"
          }
        }
      }
      attr {
        key: "_output_shapes"
        value {
          list {
            shape {
              dim {
                size: 1
              }
              dim {
                size: 1
              }
              dim {
                size: 96
              }
              dim {
                size: 24
              }
            }
          }
        }
      }
      attr {
        key: "use_locking"
        value {
          b: true
        }
      }
      attr {
        key: "validate_shape"
        value {
          b: true
        }
      }
    }
    node {
      name: "fire3_squeeze/kernel/read"
      op: "Identity"
      input: "fire3_squeeze/kernel"
      attr {
        key: "T"
        value {
          type: DT_FLOAT
        }
      }
      attr {
        key: "_class"
        value {
          list {
            s: "loc:@fire3_squeeze/kernel"
          }
        }
      }
      attr {
        key: "_output_shapes"
        value {
          list {
            shape {
              dim {
                size: 1
              }
              dim {
                size: 1
              }
              dim {
                size: 96
              }
              dim {
                size: 24
              }
            }
          }
        }
      }
    }
    node {
      name: "fire3_squeeze/bias/Initializer/zeros"
      op: "Const"
      attr {
        key: "_class"
        value {
          list {
            s: "loc:@fire3_squeeze/bias"
          }
        }
      }
      attr {
        key: "_output_shapes"
        value {
          list {
            shape {
              dim {
                size: 24
              }
            }
          }
        }
      }
      attr {
        key: "dtype"
        value {
          type: DT_FLOAT
        }
      }
      attr {
        key: "value"
        value {
          tensor {
            dtype: DT_FLOAT
            tensor_shape {
              dim {
                size: 24
              }
            }
            float_val: 0.0
          }
        }
      }
    }
    node {
      name: "fire3_squeeze/bias"
      op: "VariableV2"
      attr {
        key: "_class"
        value {
          list {
            s: "loc:@fire3_squeeze/bias"
          }
        }
      }
      attr {
        key: "_output_shapes"
        value {
          list {
            shape {
              dim {
                size: 24
              }
            }
          }
        }
      }
      attr {
        key: "container"
        value {
          s: ""
        }
      }
      attr {
        key: "dtype"
        value {
          type: DT_FLOAT
        }
      }
      attr {
        key: "shape"
        value {
          shape {
            dim {
              size: 24
            }
          }
        }
      }
      attr {
        key: "shared_name"
        value {
          s: ""
        }
      }
    }
    node {
      name: "fire3_squeeze/bias/Assign"
      op: "Assign"
      input: "fire3_squeeze/bias"
      input: "fire3_squeeze/bias/Initializer/zeros"
      attr {
        key: "T"
        value {
          type: DT_FLOAT
        }
      }
      attr {
        key: "_class"
        value {
          list {
            s: "loc:@fire3_squeeze/bias"
          }
        }
      }
      attr {
        key: "_output_shapes"
        value {
          list {
            shape {
              dim {
                size: 24
              }
            }
          }
        }
      }
      attr {
        key: "use_locking"
        value {
          b: true
        }
      }
      attr {
        key: "validate_shape"
        value {
          b: true
        }
      }
    }
    node {
      name: "fire3_squeeze/bias/read"
      op: "Identity"
      input: "fire3_squeeze/bias"
      attr {
        key: "T"
        value {
          type: DT_FLOAT
        }
      }
      attr {
        key: "_class"
        value {
          list {
            s: "loc:@fire3_squeeze/bias"
          }
        }
      }
      attr {
        key: "_output_shapes"
        value {
          list {
            shape {
              dim {
                size: 24
              }
            }
          }
        }
      }
    }
    node {
      name: "fire3_squeeze/dilation_rate"
      op: "Const"
      attr {
        key: "_output_shapes"
        value {
          list {
            shape {
              dim {
                size: 2
              }
            }
          }
        }
      }
      attr {
        key: "dtype"
        value {
          type: DT_INT32
        }
      }
      attr {
        key: "value"
        value {
          tensor {
            dtype: DT_INT32
            tensor_shape {
              dim {
                size: 2
              }
            }
            tensor_content: "\001\000\000\000\001\000\000\000"
          }
        }
      }
    }
    node {
      name: "fire3_squeeze/Conv2D"
      op: "Conv2D"
      input: "concat"
      input: "fire3_squeeze/kernel/read"
      attr {
        key: "T"
        value {
          type: DT_FLOAT
        }
      }
      attr {
        key: "_output_shapes"
        value {
          list {
            shape {
              dim {
                size: -1
              }
              dim {
                size: 64
              }
              dim {
                size: 128
              }
              dim {
                size: 24
              }
            }
          }
        }
      }
      attr {
        key: "data_format"
        value {
          s: "NHWC"
        }
      }
      attr {
        key: "padding"
        value {
          s: "SAME"
        }
      }
      attr {
        key: "strides"
        value {
          list {
            i: 1
            i: 1
            i: 1
            i: 1
          }
        }
      }
      attr {
        key: "use_cudnn_on_gpu"
        value {
          b: true
        }
      }
    }
    node {
      name: "fire3_squeeze/BiasAdd"
      op: "BiasAdd"
      input: "fire3_squeeze/Conv2D"
      input: "fire3_squeeze/bias/read"
      attr {
        key: "T"
        value {
          type: DT_FLOAT
        }
      }
      attr {
        key: "_output_shapes"
        value {
          list {
            shape {
              dim {
                size: -1
              }
              dim {
                size: 64
              }
              dim {
                size: 128
              }
              dim {
                size: 24
              }
            }
          }
        }
      }
      attr {
        key: "data_format"
        value {
          s: "NHWC"
        }
      }
    }
    node {
      name: "fire3_squeeze/Relu"
      op: "Relu"
      input: "fire3_squeeze/BiasAdd"
      attr {
        key: "T"
        value {
          type: DT_FLOAT
        }
      }
      attr {
        key: "_output_shapes"
        value {
          list {
            shape {
              dim {
                size: -1
              }
              dim {
                size: 64
              }
              dim {
                size: 128
              }
              dim {
                size: 24
              }
            }
          }
        }
      }
    }
    node {
      name: "fire3_expand_1_3x3/kernel/Initializer/random_uniform/shape"
      op: "Const"
      attr {
        key: "_class"
        value {
          list {
            s: "loc:@fire3_expand_1_3x3/kernel"
          }
        }
      }
      attr {
        key: "_output_shapes"
        value {
          list {
            shape {
              dim {
                size: 4
              }
            }
          }
        }
      }
      attr {
        key: "dtype"
        value {
          type: DT_INT32
        }
      }
      attr {
        key: "value"
        value {
          tensor {
            dtype: DT_INT32
            tensor_shape {
              dim {
                size: 4
              }
            }
            tensor_content: "\003\000\000\000\003\000\000\000\030\000\000\0000\000\000\000"
          }
        }
      }
    }
    node {
      name: "fire3_expand_1_3x3/kernel/Initializer/random_uniform/min"
      op: "Const"
      attr {
        key: "_class"
        value {
          list {
            s: "loc:@fire3_expand_1_3x3/kernel"
          }
        }
      }
      attr {
        key: "_output_shapes"
        value {
          list {
            shape {
            }
          }
        }
      }
      attr {
        key: "dtype"
        value {
          type: DT_FLOAT
        }
      }
      attr {
        key: "value"
        value {
          tensor {
            dtype: DT_FLOAT
            tensor_shape {
            }
            float_val: -0.0962250456214
          }
        }
      }
    }
    node {
      name: "fire3_expand_1_3x3/kernel/Initializer/random_uniform/max"
      op: "Const"
      attr {
        key: "_class"
        value {
          list {
            s: "loc:@fire3_expand_1_3x3/kernel"
          }
        }
      }
      attr {
        key: "_output_shapes"
        value {
          list {
            shape {
            }
          }
        }
      }
      attr {
        key: "dtype"
        value {
          type: DT_FLOAT
        }
      }
      attr {
        key: "value"
        value {
          tensor {
            dtype: DT_FLOAT
            tensor_shape {
            }
            float_val: 0.0962250456214
          }
        }
      }
    }
    node {
      name: "fire3_expand_1_3x3/kernel/Initializer/random_uniform/RandomUniform"
      op: "RandomUniform"
      input: "fire3_expand_1_3x3/kernel/Initializer/random_uniform/shape"
      attr {
        key: "T"
        value {
          type: DT_INT32
        }
      }
      attr {
        key: "_class"
        value {
          list {
            s: "loc:@fire3_expand_1_3x3/kernel"
          }
        }
      }
      attr {
        key: "_output_shapes"
        value {
          list {
            shape {
              dim {
                size: 3
              }
              dim {
                size: 3
              }
              dim {
                size: 24
              }
              dim {
                size: 48
              }
            }
          }
        }
      }
      attr {
        key: "dtype"
        value {
          type: DT_FLOAT
        }
      }
      attr {
        key: "seed"
        value {
          i: 0
        }
      }
      attr {
        key: "seed2"
        value {
          i: 0
        }
      }
    }
    node {
      name: "fire3_expand_1_3x3/kernel/Initializer/random_uniform/sub"
      op: "Sub"
      input: "fire3_expand_1_3x3/kernel/Initializer/random_uniform/max"
      input: "fire3_expand_1_3x3/kernel/Initializer/random_uniform/min"
      attr {
        key: "T"
        value {
          type: DT_FLOAT
        }
      }
      attr {
        key: "_class"
        value {
          list {
            s: "loc:@fire3_expand_1_3x3/kernel"
          }
        }
      }
      attr {
        key: "_output_shapes"
        value {
          list {
            shape {
            }
          }
        }
      }
    }
    node {
      name: "fire3_expand_1_3x3/kernel/Initializer/random_uniform/mul"
      op: "Mul"
      input: "fire3_expand_1_3x3/kernel/Initializer/random_uniform/RandomUniform"
      input: "fire3_expand_1_3x3/kernel/Initializer/random_uniform/sub"
      attr {
        key: "T"
        value {
          type: DT_FLOAT
        }
      }
      attr {
        key: "_class"
        value {
          list {
            s: "loc:@fire3_expand_1_3x3/kernel"
          }
        }
      }
      attr {
        key: "_output_shapes"
        value {
          list {
            shape {
              dim {
                size: 3
              }
              dim {
                size: 3
              }
              dim {
                size: 24
              }
              dim {
                size: 48
              }
            }
          }
        }
      }
    }
    node {
      name: "fire3_expand_1_3x3/kernel/Initializer/random_uniform"
      op: "Add"
      input: "fire3_expand_1_3x3/kernel/Initializer/random_uniform/mul"
      input: "fire3_expand_1_3x3/kernel/Initializer/random_uniform/min"
      attr {
        key: "T"
        value {
          type: DT_FLOAT
        }
      }
      attr {
        key: "_class"
        value {
          list {
            s: "loc:@fire3_expand_1_3x3/kernel"
          }
        }
      }
      attr {
        key: "_output_shapes"
        value {
          list {
            shape {
              dim {
                size: 3
              }
              dim {
                size: 3
              }
              dim {
                size: 24
              }
              dim {
                size: 48
              }
            }
          }
        }
      }
    }
    node {
      name: "fire3_expand_1_3x3/kernel"
      op: "VariableV2"
      attr {
        key: "_class"
        value {
          list {
            s: "loc:@fire3_expand_1_3x3/kernel"
          }
        }
      }
      attr {
        key: "_output_shapes"
        value {
          list {
            shape {
              dim {
                size: 3
              }
              dim {
                size: 3
              }
              dim {
                size: 24
              }
              dim {
                size: 48
              }
            }
          }
        }
      }
      attr {
        key: "container"
        value {
          s: ""
        }
      }
      attr {
        key: "dtype"
        value {
          type: DT_FLOAT
        }
      }
      attr {
        key: "shape"
        value {
          shape {
            dim {
              size: 3
            }
            dim {
              size: 3
            }
            dim {
              size: 24
            }
            dim {
              size: 48
            }
          }
        }
      }
      attr {
        key: "shared_name"
        value {
          s: ""
        }
      }
    }
    node {
      name: "fire3_expand_1_3x3/kernel/Assign"
      op: "Assign"
      input: "fire3_expand_1_3x3/kernel"
      input: "fire3_expand_1_3x3/kernel/Initializer/random_uniform"
      attr {
        key: "T"
        value {
          type: DT_FLOAT
        }
      }
      attr {
        key: "_class"
        value {
          list {
            s: "loc:@fire3_expand_1_3x3/kernel"
          }
        }
      }
      attr {
        key: "_output_shapes"
        value {
          list {
            shape {
              dim {
                size: 3
              }
              dim {
                size: 3
              }
              dim {
                size: 24
              }
              dim {
                size: 48
              }
            }
          }
        }
      }
      attr {
        key: "use_locking"
        value {
          b: true
        }
      }
      attr {
        key: "validate_shape"
        value {
          b: true
        }
      }
    }
    node {
      name: "fire3_expand_1_3x3/kernel/read"
      op: "Identity"
      input: "fire3_expand_1_3x3/kernel"
      attr {
        key: "T"
        value {
          type: DT_FLOAT
        }
      }
      attr {
        key: "_class"
        value {
          list {
            s: "loc:@fire3_expand_1_3x3/kernel"
          }
        }
      }
      attr {
        key: "_output_shapes"
        value {
          list {
            shape {
              dim {
                size: 3
              }
              dim {
                size: 3
              }
              dim {
                size: 24
              }
              dim {
                size: 48
              }
            }
          }
        }
      }
    }
    node {
      name: "fire3_expand_1_3x3/bias/Initializer/zeros"
      op: "Const"
      attr {
        key: "_class"
        value {
          list {
            s: "loc:@fire3_expand_1_3x3/bias"
          }
        }
      }
      attr {
        key: "_output_shapes"
        value {
          list {
            shape {
              dim {
                size: 48
              }
            }
          }
        }
      }
      attr {
        key: "dtype"
        value {
          type: DT_FLOAT
        }
      }
      attr {
        key: "value"
        value {
          tensor {
            dtype: DT_FLOAT
            tensor_shape {
              dim {
                size: 48
              }
            }
            float_val: 0.0
          }
        }
      }
    }
    node {
      name: "fire3_expand_1_3x3/bias"
      op: "VariableV2"
      attr {
        key: "_class"
        value {
          list {
            s: "loc:@fire3_expand_1_3x3/bias"
          }
        }
      }
      attr {
        key: "_output_shapes"
        value {
          list {
            shape {
              dim {
                size: 48
              }
            }
          }
        }
      }
      attr {
        key: "container"
        value {
          s: ""
        }
      }
      attr {
        key: "dtype"
        value {
          type: DT_FLOAT
        }
      }
      attr {
        key: "shape"
        value {
          shape {
            dim {
              size: 48
            }
          }
        }
      }
      attr {
        key: "shared_name"
        value {
          s: ""
        }
      }
    }
    node {
      name: "fire3_expand_1_3x3/bias/Assign"
      op: "Assign"
      input: "fire3_expand_1_3x3/bias"
      input: "fire3_expand_1_3x3/bias/Initializer/zeros"
      attr {
        key: "T"
        value {
          type: DT_FLOAT
        }
      }
      attr {
        key: "_class"
        value {
          list {
            s: "loc:@fire3_expand_1_3x3/bias"
          }
        }
      }
      attr {
        key: "_output_shapes"
        value {
          list {
            shape {
              dim {
                size: 48
              }
            }
          }
        }
      }
      attr {
        key: "use_locking"
        value {
          b: true
        }
      }
      attr {
        key: "validate_shape"
        value {
          b: true
        }
      }
    }
    node {
      name: "fire3_expand_1_3x3/bias/read"
      op: "Identity"
      input: "fire3_expand_1_3x3/bias"
      attr {
        key: "T"
        value {
          type: DT_FLOAT
        }
      }
      attr {
        key: "_class"
        value {
          list {
            s: "loc:@fire3_expand_1_3x3/bias"
          }
        }
      }
      attr {
        key: "_output_shapes"
        value {
          list {
            shape {
              dim {
                size: 48
              }
            }
          }
        }
      }
    }
    node {
      name: "fire3_expand_1_3x3/dilation_rate"
      op: "Const"
      attr {
        key: "_output_shapes"
        value {
          list {
            shape {
              dim {
                size: 2
              }
            }
          }
        }
      }
      attr {
        key: "dtype"
        value {
          type: DT_INT32
        }
      }
      attr {
        key: "value"
        value {
          tensor {
            dtype: DT_INT32
            tensor_shape {
              dim {
                size: 2
              }
            }
            tensor_content: "\001\000\000\000\001\000\000\000"
          }
        }
      }
    }
    node {
      name: "fire3_expand_1_3x3/Conv2D"
      op: "Conv2D"
      input: "fire3_squeeze/Relu"
      input: "fire3_expand_1_3x3/kernel/read"
      attr {
        key: "T"
        value {
          type: DT_FLOAT
        }
      }
      attr {
        key: "_output_shapes"
        value {
          list {
            shape {
              dim {
                size: -1
              }
              dim {
                size: 64
              }
              dim {
                size: 128
              }
              dim {
                size: 48
              }
            }
          }
        }
      }
      attr {
        key: "data_format"
        value {
          s: "NHWC"
        }
      }
      attr {
        key: "padding"
        value {
          s: "SAME"
        }
      }
      attr {
        key: "strides"
        value {
          list {
            i: 1
            i: 1
            i: 1
            i: 1
          }
        }
      }
      attr {
        key: "use_cudnn_on_gpu"
        value {
          b: true
        }
      }
    }
    node {
      name: "fire3_expand_1_3x3/BiasAdd"
      op: "BiasAdd"
      input: "fire3_expand_1_3x3/Conv2D"
      input: "fire3_expand_1_3x3/bias/read"
      attr {
        key: "T"
        value {
          type: DT_FLOAT
        }
      }
      attr {
        key: "_output_shapes"
        value {
          list {
            shape {
              dim {
                size: -1
              }
              dim {
                size: 64
              }
              dim {
                size: 128
              }
              dim {
                size: 48
              }
            }
          }
        }
      }
      attr {
        key: "data_format"
        value {
          s: "NHWC"
        }
      }
    }
    node {
      name: "fire3_expand_1_3x3/Relu"
      op: "Relu"
      input: "fire3_expand_1_3x3/BiasAdd"
      attr {
        key: "T"
        value {
          type: DT_FLOAT
        }
      }
      attr {
        key: "_output_shapes"
        value {
          list {
            shape {
              dim {
                size: -1
              }
              dim {
                size: 64
              }
              dim {
                size: 128
              }
              dim {
                size: 48
              }
            }
          }
        }
      }
    }
    node {
      name: "fire3_expand_2_1x1/kernel/Initializer/random_uniform/shape"
      op: "Const"
      attr {
        key: "_class"
        value {
          list {
            s: "loc:@fire3_expand_2_1x1/kernel"
          }
        }
      }
      attr {
        key: "_output_shapes"
        value {
          list {
            shape {
              dim {
                size: 4
              }
            }
          }
        }
      }
      attr {
        key: "dtype"
        value {
          type: DT_INT32
        }
      }
      attr {
        key: "value"
        value {
          tensor {
            dtype: DT_INT32
            tensor_shape {
              dim {
                size: 4
              }
            }
            tensor_content: "\001\000\000\000\001\000\000\000\030\000\000\0000\000\000\000"
          }
        }
      }
    }
    node {
      name: "fire3_expand_2_1x1/kernel/Initializer/random_uniform/min"
      op: "Const"
      attr {
        key: "_class"
        value {
          list {
            s: "loc:@fire3_expand_2_1x1/kernel"
          }
        }
      }
      attr {
        key: "_output_shapes"
        value {
          list {
            shape {
            }
          }
        }
      }
      attr {
        key: "dtype"
        value {
          type: DT_FLOAT
        }
      }
      attr {
        key: "value"
        value {
          tensor {
            dtype: DT_FLOAT
            tensor_shape {
            }
            float_val: -0.288675129414
          }
        }
      }
    }
    node {
      name: "fire3_expand_2_1x1/kernel/Initializer/random_uniform/max"
      op: "Const"
      attr {
        key: "_class"
        value {
          list {
            s: "loc:@fire3_expand_2_1x1/kernel"
          }
        }
      }
      attr {
        key: "_output_shapes"
        value {
          list {
            shape {
            }
          }
        }
      }
      attr {
        key: "dtype"
        value {
          type: DT_FLOAT
        }
      }
      attr {
        key: "value"
        value {
          tensor {
            dtype: DT_FLOAT
            tensor_shape {
            }
            float_val: 0.288675129414
          }
        }
      }
    }
    node {
      name: "fire3_expand_2_1x1/kernel/Initializer/random_uniform/RandomUniform"
      op: "RandomUniform"
      input: "fire3_expand_2_1x1/kernel/Initializer/random_uniform/shape"
      attr {
        key: "T"
        value {
          type: DT_INT32
        }
      }
      attr {
        key: "_class"
        value {
          list {
            s: "loc:@fire3_expand_2_1x1/kernel"
          }
        }
      }
      attr {
        key: "_output_shapes"
        value {
          list {
            shape {
              dim {
                size: 1
              }
              dim {
                size: 1
              }
              dim {
                size: 24
              }
              dim {
                size: 48
              }
            }
          }
        }
      }
      attr {
        key: "dtype"
        value {
          type: DT_FLOAT
        }
      }
      attr {
        key: "seed"
        value {
          i: 0
        }
      }
      attr {
        key: "seed2"
        value {
          i: 0
        }
      }
    }
    node {
      name: "fire3_expand_2_1x1/kernel/Initializer/random_uniform/sub"
      op: "Sub"
      input: "fire3_expand_2_1x1/kernel/Initializer/random_uniform/max"
      input: "fire3_expand_2_1x1/kernel/Initializer/random_uniform/min"
      attr {
        key: "T"
        value {
          type: DT_FLOAT
        }
      }
      attr {
        key: "_class"
        value {
          list {
            s: "loc:@fire3_expand_2_1x1/kernel"
          }
        }
      }
      attr {
        key: "_output_shapes"
        value {
          list {
            shape {
            }
          }
        }
      }
    }
    node {
      name: "fire3_expand_2_1x1/kernel/Initializer/random_uniform/mul"
      op: "Mul"
      input: "fire3_expand_2_1x1/kernel/Initializer/random_uniform/RandomUniform"
      input: "fire3_expand_2_1x1/kernel/Initializer/random_uniform/sub"
      attr {
        key: "T"
        value {
          type: DT_FLOAT
        }
      }
      attr {
        key: "_class"
        value {
          list {
            s: "loc:@fire3_expand_2_1x1/kernel"
          }
        }
      }
      attr {
        key: "_output_shapes"
        value {
          list {
            shape {
              dim {
                size: 1
              }
              dim {
                size: 1
              }
              dim {
                size: 24
              }
              dim {
                size: 48
              }
            }
          }
        }
      }
    }
    node {
      name: "fire3_expand_2_1x1/kernel/Initializer/random_uniform"
      op: "Add"
      input: "fire3_expand_2_1x1/kernel/Initializer/random_uniform/mul"
      input: "fire3_expand_2_1x1/kernel/Initializer/random_uniform/min"
      attr {
        key: "T"
        value {
          type: DT_FLOAT
        }
      }
      attr {
        key: "_class"
        value {
          list {
            s: "loc:@fire3_expand_2_1x1/kernel"
          }
        }
      }
      attr {
        key: "_output_shapes"
        value {
          list {
            shape {
              dim {
                size: 1
              }
              dim {
                size: 1
              }
              dim {
                size: 24
              }
              dim {
                size: 48
              }
            }
          }
        }
      }
    }
    node {
      name: "fire3_expand_2_1x1/kernel"
      op: "VariableV2"
      attr {
        key: "_class"
        value {
          list {
            s: "loc:@fire3_expand_2_1x1/kernel"
          }
        }
      }
      attr {
        key: "_output_shapes"
        value {
          list {
            shape {
              dim {
                size: 1
              }
              dim {
                size: 1
              }
              dim {
                size: 24
              }
              dim {
                size: 48
              }
            }
          }
        }
      }
      attr {
        key: "container"
        value {
          s: ""
        }
      }
      attr {
        key: "dtype"
        value {
          type: DT_FLOAT
        }
      }
      attr {
        key: "shape"
        value {
          shape {
            dim {
              size: 1
            }
            dim {
              size: 1
            }
            dim {
              size: 24
            }
            dim {
              size: 48
            }
          }
        }
      }
      attr {
        key: "shared_name"
        value {
          s: ""
        }
      }
    }
    node {
      name: "fire3_expand_2_1x1/kernel/Assign"
      op: "Assign"
      input: "fire3_expand_2_1x1/kernel"
      input: "fire3_expand_2_1x1/kernel/Initializer/random_uniform"
      attr {
        key: "T"
        value {
          type: DT_FLOAT
        }
      }
      attr {
        key: "_class"
        value {
          list {
            s: "loc:@fire3_expand_2_1x1/kernel"
          }
        }
      }
      attr {
        key: "_output_shapes"
        value {
          list {
            shape {
              dim {
                size: 1
              }
              dim {
                size: 1
              }
              dim {
                size: 24
              }
              dim {
                size: 48
              }
            }
          }
        }
      }
      attr {
        key: "use_locking"
        value {
          b: true
        }
      }
      attr {
        key: "validate_shape"
        value {
          b: true
        }
      }
    }
    node {
      name: "fire3_expand_2_1x1/kernel/read"
      op: "Identity"
      input: "fire3_expand_2_1x1/kernel"
      attr {
        key: "T"
        value {
          type: DT_FLOAT
        }
      }
      attr {
        key: "_class"
        value {
          list {
            s: "loc:@fire3_expand_2_1x1/kernel"
          }
        }
      }
      attr {
        key: "_output_shapes"
        value {
          list {
            shape {
              dim {
                size: 1
              }
              dim {
                size: 1
              }
              dim {
                size: 24
              }
              dim {
                size: 48
              }
            }
          }
        }
      }
    }
    node {
      name: "fire3_expand_2_1x1/bias/Initializer/zeros"
      op: "Const"
      attr {
        key: "_class"
        value {
          list {
            s: "loc:@fire3_expand_2_1x1/bias"
          }
        }
      }
      attr {
        key: "_output_shapes"
        value {
          list {
            shape {
              dim {
                size: 48
              }
            }
          }
        }
      }
      attr {
        key: "dtype"
        value {
          type: DT_FLOAT
        }
      }
      attr {
        key: "value"
        value {
          tensor {
            dtype: DT_FLOAT
            tensor_shape {
              dim {
                size: 48
              }
            }
            float_val: 0.0
          }
        }
      }
    }
    node {
      name: "fire3_expand_2_1x1/bias"
      op: "VariableV2"
      attr {
        key: "_class"
        value {
          list {
            s: "loc:@fire3_expand_2_1x1/bias"
          }
        }
      }
      attr {
        key: "_output_shapes"
        value {
          list {
            shape {
              dim {
                size: 48
              }
            }
          }
        }
      }
      attr {
        key: "container"
        value {
          s: ""
        }
      }
      attr {
        key: "dtype"
        value {
          type: DT_FLOAT
        }
      }
      attr {
        key: "shape"
        value {
          shape {
            dim {
              size: 48
            }
          }
        }
      }
      attr {
        key: "shared_name"
        value {
          s: ""
        }
      }
    }
    node {
      name: "fire3_expand_2_1x1/bias/Assign"
      op: "Assign"
      input: "fire3_expand_2_1x1/bias"
      input: "fire3_expand_2_1x1/bias/Initializer/zeros"
      attr {
        key: "T"
        value {
          type: DT_FLOAT
        }
      }
      attr {
        key: "_class"
        value {
          list {
            s: "loc:@fire3_expand_2_1x1/bias"
          }
        }
      }
      attr {
        key: "_output_shapes"
        value {
          list {
            shape {
              dim {
                size: 48
              }
            }
          }
        }
      }
      attr {
        key: "use_locking"
        value {
          b: true
        }
      }
      attr {
        key: "validate_shape"
        value {
          b: true
        }
      }
    }
    node {
      name: "fire3_expand_2_1x1/bias/read"
      op: "Identity"
      input: "fire3_expand_2_1x1/bias"
      attr {
        key: "T"
        value {
          type: DT_FLOAT
        }
      }
      attr {
        key: "_class"
        value {
          list {
            s: "loc:@fire3_expand_2_1x1/bias"
          }
        }
      }
      attr {
        key: "_output_shapes"
        value {
          list {
            shape {
              dim {
                size: 48
              }
            }
          }
        }
      }
    }
    node {
      name: "fire3_expand_2_1x1/dilation_rate"
      op: "Const"
      attr {
        key: "_output_shapes"
        value {
          list {
            shape {
              dim {
                size: 2
              }
            }
          }
        }
      }
      attr {
        key: "dtype"
        value {
          type: DT_INT32
        }
      }
      attr {
        key: "value"
        value {
          tensor {
            dtype: DT_INT32
            tensor_shape {
              dim {
                size: 2
              }
            }
            tensor_content: "\001\000\000\000\001\000\000\000"
          }
        }
      }
    }
    node {
      name: "fire3_expand_2_1x1/Conv2D"
      op: "Conv2D"
      input: "fire3_squeeze/Relu"
      input: "fire3_expand_2_1x1/kernel/read"
      attr {
        key: "T"
        value {
          type: DT_FLOAT
        }
      }
      attr {
        key: "_output_shapes"
        value {
          list {
            shape {
              dim {
                size: -1
              }
              dim {
                size: 64
              }
              dim {
                size: 128
              }
              dim {
                size: 48
              }
            }
          }
        }
      }
      attr {
        key: "data_format"
        value {
          s: "NHWC"
        }
      }
      attr {
        key: "padding"
        value {
          s: "SAME"
        }
      }
      attr {
        key: "strides"
        value {
          list {
            i: 1
            i: 1
            i: 1
            i: 1
          }
        }
      }
      attr {
        key: "use_cudnn_on_gpu"
        value {
          b: true
        }
      }
    }
    node {
      name: "fire3_expand_2_1x1/BiasAdd"
      op: "BiasAdd"
      input: "fire3_expand_2_1x1/Conv2D"
      input: "fire3_expand_2_1x1/bias/read"
      attr {
        key: "T"
        value {
          type: DT_FLOAT
        }
      }
      attr {
        key: "_output_shapes"
        value {
          list {
            shape {
              dim {
                size: -1
              }
              dim {
                size: 64
              }
              dim {
                size: 128
              }
              dim {
                size: 48
              }
            }
          }
        }
      }
      attr {
        key: "data_format"
        value {
          s: "NHWC"
        }
      }
    }
    node {
      name: "fire3_expand_2_1x1/Relu"
      op: "Relu"
      input: "fire3_expand_2_1x1/BiasAdd"
      attr {
        key: "T"
        value {
          type: DT_FLOAT
        }
      }
      attr {
        key: "_output_shapes"
        value {
          list {
            shape {
              dim {
                size: -1
              }
              dim {
                size: 64
              }
              dim {
                size: 128
              }
              dim {
                size: 48
              }
            }
          }
        }
      }
    }
    node {
      name: "concat_1/axis"
      op: "Const"
      attr {
        key: "_output_shapes"
        value {
          list {
            shape {
            }
          }
        }
      }
      attr {
        key: "dtype"
        value {
          type: DT_INT32
        }
      }
      attr {
        key: "value"
        value {
          tensor {
            dtype: DT_INT32
            tensor_shape {
            }
            int_val: -1
          }
        }
      }
    }
    node {
      name: "concat_1"
      op: "ConcatV2"
      input: "fire3_expand_1_3x3/Relu"
      input: "fire3_expand_2_1x1/Relu"
      input: "concat_1/axis"
      attr {
        key: "N"
        value {
          i: 2
        }
      }
      attr {
        key: "T"
        value {
          type: DT_FLOAT
        }
      }
      attr {
        key: "Tidx"
        value {
          type: DT_INT32
        }
      }
      attr {
        key: "_output_shapes"
        value {
          list {
            shape {
              dim {
                size: -1
              }
              dim {
                size: 64
              }
              dim {
                size: 128
              }
              dim {
                size: 96
              }
            }
          }
        }
      }
    }
    node {
      name: "maxpool3/MaxPool"
      op: "MaxPool"
      input: "concat_1"
      attr {
        key: "T"
        value {
          type: DT_FLOAT
        }
      }
      attr {
        key: "_output_shapes"
        value {
          list {
            shape {
              dim {
                size: -1
              }
              dim {
                size: 64
              }
              dim {
                size: 64
              }
              dim {
                size: 96
              }
            }
          }
        }
      }
      attr {
        key: "data_format"
        value {
          s: "NHWC"
        }
      }
      attr {
        key: "ksize"
        value {
          list {
            i: 1
            i: 3
            i: 3
            i: 1
          }
        }
      }
      attr {
        key: "padding"
        value {
          s: "SAME"
        }
      }
      attr {
        key: "strides"
        value {
          list {
            i: 1
            i: 1
            i: 2
            i: 1
          }
        }
      }
    }
    node {
      name: "fire4_squeeze/kernel/Initializer/random_uniform/shape"
      op: "Const"
      attr {
        key: "_class"
        value {
          list {
            s: "loc:@fire4_squeeze/kernel"
          }
        }
      }
      attr {
        key: "_output_shapes"
        value {
          list {
            shape {
              dim {
                size: 4
              }
            }
          }
        }
      }
      attr {
        key: "dtype"
        value {
          type: DT_INT32
        }
      }
      attr {
        key: "value"
        value {
          tensor {
            dtype: DT_INT32
            tensor_shape {
              dim {
                size: 4
              }
            }
            tensor_content: "\001\000\000\000\001\000\000\000`\000\000\000\030\000\000\000"
          }
        }
      }
    }
    node {
      name: "fire4_squeeze/kernel/Initializer/random_uniform/min"
      op: "Const"
      attr {
        key: "_class"
        value {
          list {
            s: "loc:@fire4_squeeze/kernel"
          }
        }
      }
      attr {
        key: "_output_shapes"
        value {
          list {
            shape {
            }
          }
        }
      }
      attr {
        key: "dtype"
        value {
          type: DT_FLOAT
        }
      }
      attr {
        key: "value"
        value {
          tensor {
            dtype: DT_FLOAT
            tensor_shape {
            }
            float_val: -0.223606795073
          }
        }
      }
    }
    node {
      name: "fire4_squeeze/kernel/Initializer/random_uniform/max"
      op: "Const"
      attr {
        key: "_class"
        value {
          list {
            s: "loc:@fire4_squeeze/kernel"
          }
        }
      }
      attr {
        key: "_output_shapes"
        value {
          list {
            shape {
            }
          }
        }
      }
      attr {
        key: "dtype"
        value {
          type: DT_FLOAT
        }
      }
      attr {
        key: "value"
        value {
          tensor {
            dtype: DT_FLOAT
            tensor_shape {
            }
            float_val: 0.223606795073
          }
        }
      }
    }
    node {
      name: "fire4_squeeze/kernel/Initializer/random_uniform/RandomUniform"
      op: "RandomUniform"
      input: "fire4_squeeze/kernel/Initializer/random_uniform/shape"
      attr {
        key: "T"
        value {
          type: DT_INT32
        }
      }
      attr {
        key: "_class"
        value {
          list {
            s: "loc:@fire4_squeeze/kernel"
          }
        }
      }
      attr {
        key: "_output_shapes"
        value {
          list {
            shape {
              dim {
                size: 1
              }
              dim {
                size: 1
              }
              dim {
                size: 96
              }
              dim {
                size: 24
              }
            }
          }
        }
      }
      attr {
        key: "dtype"
        value {
          type: DT_FLOAT
        }
      }
      attr {
        key: "seed"
        value {
          i: 0
        }
      }
      attr {
        key: "seed2"
        value {
          i: 0
        }
      }
    }
    node {
      name: "fire4_squeeze/kernel/Initializer/random_uniform/sub"
      op: "Sub"
      input: "fire4_squeeze/kernel/Initializer/random_uniform/max"
      input: "fire4_squeeze/kernel/Initializer/random_uniform/min"
      attr {
        key: "T"
        value {
          type: DT_FLOAT
        }
      }
      attr {
        key: "_class"
        value {
          list {
            s: "loc:@fire4_squeeze/kernel"
          }
        }
      }
      attr {
        key: "_output_shapes"
        value {
          list {
            shape {
            }
          }
        }
      }
    }
    node {
      name: "fire4_squeeze/kernel/Initializer/random_uniform/mul"
      op: "Mul"
      input: "fire4_squeeze/kernel/Initializer/random_uniform/RandomUniform"
      input: "fire4_squeeze/kernel/Initializer/random_uniform/sub"
      attr {
        key: "T"
        value {
          type: DT_FLOAT
        }
      }
      attr {
        key: "_class"
        value {
          list {
            s: "loc:@fire4_squeeze/kernel"
          }
        }
      }
      attr {
        key: "_output_shapes"
        value {
          list {
            shape {
              dim {
                size: 1
              }
              dim {
                size: 1
              }
              dim {
                size: 96
              }
              dim {
                size: 24
              }
            }
          }
        }
      }
    }
    node {
      name: "fire4_squeeze/kernel/Initializer/random_uniform"
      op: "Add"
      input: "fire4_squeeze/kernel/Initializer/random_uniform/mul"
      input: "fire4_squeeze/kernel/Initializer/random_uniform/min"
      attr {
        key: "T"
        value {
          type: DT_FLOAT
        }
      }
      attr {
        key: "_class"
        value {
          list {
            s: "loc:@fire4_squeeze/kernel"
          }
        }
      }
      attr {
        key: "_output_shapes"
        value {
          list {
            shape {
              dim {
                size: 1
              }
              dim {
                size: 1
              }
              dim {
                size: 96
              }
              dim {
                size: 24
              }
            }
          }
        }
      }
    }
    node {
      name: "fire4_squeeze/kernel"
      op: "VariableV2"
      attr {
        key: "_class"
        value {
          list {
            s: "loc:@fire4_squeeze/kernel"
          }
        }
      }
      attr {
        key: "_output_shapes"
        value {
          list {
            shape {
              dim {
                size: 1
              }
              dim {
                size: 1
              }
              dim {
                size: 96
              }
              dim {
                size: 24
              }
            }
          }
        }
      }
      attr {
        key: "container"
        value {
          s: ""
        }
      }
      attr {
        key: "dtype"
        value {
          type: DT_FLOAT
        }
      }
      attr {
        key: "shape"
        value {
          shape {
            dim {
              size: 1
            }
            dim {
              size: 1
            }
            dim {
              size: 96
            }
            dim {
              size: 24
            }
          }
        }
      }
      attr {
        key: "shared_name"
        value {
          s: ""
        }
      }
    }
    node {
      name: "fire4_squeeze/kernel/Assign"
      op: "Assign"
      input: "fire4_squeeze/kernel"
      input: "fire4_squeeze/kernel/Initializer/random_uniform"
      attr {
        key: "T"
        value {
          type: DT_FLOAT
        }
      }
      attr {
        key: "_class"
        value {
          list {
            s: "loc:@fire4_squeeze/kernel"
          }
        }
      }
      attr {
        key: "_output_shapes"
        value {
          list {
            shape {
              dim {
                size: 1
              }
              dim {
                size: 1
              }
              dim {
                size: 96
              }
              dim {
                size: 24
              }
            }
          }
        }
      }
      attr {
        key: "use_locking"
        value {
          b: true
        }
      }
      attr {
        key: "validate_shape"
        value {
          b: true
        }
      }
    }
    node {
      name: "fire4_squeeze/kernel/read"
      op: "Identity"
      input: "fire4_squeeze/kernel"
      attr {
        key: "T"
        value {
          type: DT_FLOAT
        }
      }
      attr {
        key: "_class"
        value {
          list {
            s: "loc:@fire4_squeeze/kernel"
          }
        }
      }
      attr {
        key: "_output_shapes"
        value {
          list {
            shape {
              dim {
                size: 1
              }
              dim {
                size: 1
              }
              dim {
                size: 96
              }
              dim {
                size: 24
              }
            }
          }
        }
      }
    }
    node {
      name: "fire4_squeeze/bias/Initializer/zeros"
      op: "Const"
      attr {
        key: "_class"
        value {
          list {
            s: "loc:@fire4_squeeze/bias"
          }
        }
      }
      attr {
        key: "_output_shapes"
        value {
          list {
            shape {
              dim {
                size: 24
              }
            }
          }
        }
      }
      attr {
        key: "dtype"
        value {
          type: DT_FLOAT
        }
      }
      attr {
        key: "value"
        value {
          tensor {
            dtype: DT_FLOAT
            tensor_shape {
              dim {
                size: 24
              }
            }
            float_val: 0.0
          }
        }
      }
    }
    node {
      name: "fire4_squeeze/bias"
      op: "VariableV2"
      attr {
        key: "_class"
        value {
          list {
            s: "loc:@fire4_squeeze/bias"
          }
        }
      }
      attr {
        key: "_output_shapes"
        value {
          list {
            shape {
              dim {
                size: 24
              }
            }
          }
        }
      }
      attr {
        key: "container"
        value {
          s: ""
        }
      }
      attr {
        key: "dtype"
        value {
          type: DT_FLOAT
        }
      }
      attr {
        key: "shape"
        value {
          shape {
            dim {
              size: 24
            }
          }
        }
      }
      attr {
        key: "shared_name"
        value {
          s: ""
        }
      }
    }
    node {
      name: "fire4_squeeze/bias/Assign"
      op: "Assign"
      input: "fire4_squeeze/bias"
      input: "fire4_squeeze/bias/Initializer/zeros"
      attr {
        key: "T"
        value {
          type: DT_FLOAT
        }
      }
      attr {
        key: "_class"
        value {
          list {
            s: "loc:@fire4_squeeze/bias"
          }
        }
      }
      attr {
        key: "_output_shapes"
        value {
          list {
            shape {
              dim {
                size: 24
              }
            }
          }
        }
      }
      attr {
        key: "use_locking"
        value {
          b: true
        }
      }
      attr {
        key: "validate_shape"
        value {
          b: true
        }
      }
    }
    node {
      name: "fire4_squeeze/bias/read"
      op: "Identity"
      input: "fire4_squeeze/bias"
      attr {
        key: "T"
        value {
          type: DT_FLOAT
        }
      }
      attr {
        key: "_class"
        value {
          list {
            s: "loc:@fire4_squeeze/bias"
          }
        }
      }
      attr {
        key: "_output_shapes"
        value {
          list {
            shape {
              dim {
                size: 24
              }
            }
          }
        }
      }
    }
    node {
      name: "fire4_squeeze/dilation_rate"
      op: "Const"
      attr {
        key: "_output_shapes"
        value {
          list {
            shape {
              dim {
                size: 2
              }
            }
          }
        }
      }
      attr {
        key: "dtype"
        value {
          type: DT_INT32
        }
      }
      attr {
        key: "value"
        value {
          tensor {
            dtype: DT_INT32
            tensor_shape {
              dim {
                size: 2
              }
            }
            tensor_content: "\001\000\000\000\001\000\000\000"
          }
        }
      }
    }
    node {
      name: "fire4_squeeze/Conv2D"
      op: "Conv2D"
      input: "maxpool3/MaxPool"
      input: "fire4_squeeze/kernel/read"
      attr {
        key: "T"
        value {
          type: DT_FLOAT
        }
      }
      attr {
        key: "_output_shapes"
        value {
          list {
            shape {
              dim {
                size: -1
              }
              dim {
                size: 64
              }
              dim {
                size: 64
              }
              dim {
                size: 24
              }
            }
          }
        }
      }
      attr {
        key: "data_format"
        value {
          s: "NHWC"
        }
      }
      attr {
        key: "padding"
        value {
          s: "SAME"
        }
      }
      attr {
        key: "strides"
        value {
          list {
            i: 1
            i: 1
            i: 1
            i: 1
          }
        }
      }
      attr {
        key: "use_cudnn_on_gpu"
        value {
          b: true
        }
      }
    }
    node {
      name: "fire4_squeeze/BiasAdd"
      op: "BiasAdd"
      input: "fire4_squeeze/Conv2D"
      input: "fire4_squeeze/bias/read"
      attr {
        key: "T"
        value {
          type: DT_FLOAT
        }
      }
      attr {
        key: "_output_shapes"
        value {
          list {
            shape {
              dim {
                size: -1
              }
              dim {
                size: 64
              }
              dim {
                size: 64
              }
              dim {
                size: 24
              }
            }
          }
        }
      }
      attr {
        key: "data_format"
        value {
          s: "NHWC"
        }
      }
    }
    node {
      name: "fire4_squeeze/Relu"
      op: "Relu"
      input: "fire4_squeeze/BiasAdd"
      attr {
        key: "T"
        value {
          type: DT_FLOAT
        }
      }
      attr {
        key: "_output_shapes"
        value {
          list {
            shape {
              dim {
                size: -1
              }
              dim {
                size: 64
              }
              dim {
                size: 64
              }
              dim {
                size: 24
              }
            }
          }
        }
      }
    }
    node {
      name: "fire4_expand_1_3x3/kernel/Initializer/random_uniform/shape"
      op: "Const"
      attr {
        key: "_class"
        value {
          list {
            s: "loc:@fire4_expand_1_3x3/kernel"
          }
        }
      }
      attr {
        key: "_output_shapes"
        value {
          list {
            shape {
              dim {
                size: 4
              }
            }
          }
        }
      }
      attr {
        key: "dtype"
        value {
          type: DT_INT32
        }
      }
      attr {
        key: "value"
        value {
          tensor {
            dtype: DT_INT32
            tensor_shape {
              dim {
                size: 4
              }
            }
            tensor_content: "\003\000\000\000\003\000\000\000\030\000\000\0000\000\000\000"
          }
        }
      }
    }
    node {
      name: "fire4_expand_1_3x3/kernel/Initializer/random_uniform/min"
      op: "Const"
      attr {
        key: "_class"
        value {
          list {
            s: "loc:@fire4_expand_1_3x3/kernel"
          }
        }
      }
      attr {
        key: "_output_shapes"
        value {
          list {
            shape {
            }
          }
        }
      }
      attr {
        key: "dtype"
        value {
          type: DT_FLOAT
        }
      }
      attr {
        key: "value"
        value {
          tensor {
            dtype: DT_FLOAT
            tensor_shape {
            }
            float_val: -0.0962250456214
          }
        }
      }
    }
    node {
      name: "fire4_expand_1_3x3/kernel/Initializer/random_uniform/max"
      op: "Const"
      attr {
        key: "_class"
        value {
          list {
            s: "loc:@fire4_expand_1_3x3/kernel"
          }
        }
      }
      attr {
        key: "_output_shapes"
        value {
          list {
            shape {
            }
          }
        }
      }
      attr {
        key: "dtype"
        value {
          type: DT_FLOAT
        }
      }
      attr {
        key: "value"
        value {
          tensor {
            dtype: DT_FLOAT
            tensor_shape {
            }
            float_val: 0.0962250456214
          }
        }
      }
    }
    node {
      name: "fire4_expand_1_3x3/kernel/Initializer/random_uniform/RandomUniform"
      op: "RandomUniform"
      input: "fire4_expand_1_3x3/kernel/Initializer/random_uniform/shape"
      attr {
        key: "T"
        value {
          type: DT_INT32
        }
      }
      attr {
        key: "_class"
        value {
          list {
            s: "loc:@fire4_expand_1_3x3/kernel"
          }
        }
      }
      attr {
        key: "_output_shapes"
        value {
          list {
            shape {
              dim {
                size: 3
              }
              dim {
                size: 3
              }
              dim {
                size: 24
              }
              dim {
                size: 48
              }
            }
          }
        }
      }
      attr {
        key: "dtype"
        value {
          type: DT_FLOAT
        }
      }
      attr {
        key: "seed"
        value {
          i: 0
        }
      }
      attr {
        key: "seed2"
        value {
          i: 0
        }
      }
    }
    node {
      name: "fire4_expand_1_3x3/kernel/Initializer/random_uniform/sub"
      op: "Sub"
      input: "fire4_expand_1_3x3/kernel/Initializer/random_uniform/max"
      input: "fire4_expand_1_3x3/kernel/Initializer/random_uniform/min"
      attr {
        key: "T"
        value {
          type: DT_FLOAT
        }
      }
      attr {
        key: "_class"
        value {
          list {
            s: "loc:@fire4_expand_1_3x3/kernel"
          }
        }
      }
      attr {
        key: "_output_shapes"
        value {
          list {
            shape {
            }
          }
        }
      }
    }
    node {
      name: "fire4_expand_1_3x3/kernel/Initializer/random_uniform/mul"
      op: "Mul"
      input: "fire4_expand_1_3x3/kernel/Initializer/random_uniform/RandomUniform"
      input: "fire4_expand_1_3x3/kernel/Initializer/random_uniform/sub"
      attr {
        key: "T"
        value {
          type: DT_FLOAT
        }
      }
      attr {
        key: "_class"
        value {
          list {
            s: "loc:@fire4_expand_1_3x3/kernel"
          }
        }
      }
      attr {
        key: "_output_shapes"
        value {
          list {
            shape {
              dim {
                size: 3
              }
              dim {
                size: 3
              }
              dim {
                size: 24
              }
              dim {
…
            string_val: "fire_deconv13_expand_1_3x3/kernel"
          }
        }
      }
    }
    node {
      name: "save_1/RestoreV2_79/shape_and_slices"
      op: "Const"
      attr {
        key: "_output_shapes"
        value {
          list {
            shape {
              dim {
                size: 1
              }
            }
          }
        }
      }
      attr {
        key: "dtype"
        value {
          type: DT_STRING
        }
      }
      attr {
        key: "value"
        value {
          tensor {
            dtype: DT_STRING
            tensor_shape {
              dim {
                size: 1
              }
            }
            string_val: ""
          }
        }
      }
    }
    node {
      name: "save_1/RestoreV2_79"
      op: "RestoreV2"
      input: "save_1/Const"
      input: "save_1/RestoreV2_79/tensor_names"
      input: "save_1/RestoreV2_79/shape_and_slices"
      attr {
        key: "_output_shapes"
        value {
          list {
            shape {
              unknown_rank: true
            }
          }
        }
      }
      attr {
        key: "dtypes"
        value {
          list {
            type: DT_FLOAT
          }
        }
      }
    }
    node {
      name: "save_1/Assign_79"
      op: "Assign"
      input: "fire_deconv13_expand_1_3x3/kernel"
      input: "save_1/RestoreV2_79"
      attr {
        key: "T"
        value {
          type: DT_FLOAT
        }
      }
      attr {
        key: "_class"
        value {
          list {
            s: "loc:@fire_deconv13_expand_1_3x3/kernel"
          }
        }
      }
      attr {
        key: "_output_shapes"
        value {
          list {
            shape {
              dim {
                size: 3
              }
              dim {
                size: 3
              }
              dim {
                size: 24
              }
              dim {
                size: 48
              }
            }
          }
        }
      }
      attr {
        key: "use_locking"
        value {
          b: true
        }
      }
      attr {
        key: "validate_shape"
        value {
          b: true
        }
      }
    }
    node {
      name: "save_1/RestoreV2_80/tensor_names"
      op: "Const"
      attr {
        key: "_output_shapes"
        value {
          list {
            shape {
              dim {
                size: 1
              }
            }
          }
        }
      }
      attr {
        key: "dtype"
        value {
          type: DT_STRING
        }
      }
      attr {
        key: "value"
        value {
          tensor {
            dtype: DT_STRING
            tensor_shape {
              dim {
                size: 1
              }
            }
            string_val: "fire_deconv13_expand_2_1x1/bias"
          }
        }
      }
    }
    node {
      name: "save_1/RestoreV2_80/shape_and_slices"
      op: "Const"
      attr {
        key: "_output_shapes"
        value {
          list {
            shape {
              dim {
                size: 1
              }
            }
          }
        }
      }
      attr {
        key: "dtype"
        value {
          type: DT_STRING
        }
      }
      attr {
        key: "value"
        value {
          tensor {
            dtype: DT_STRING
            tensor_shape {
              dim {
                size: 1
              }
            }
            string_val: ""
          }
        }
      }
    }
    node {
      name: "save_1/RestoreV2_80"
      op: "RestoreV2"
      input: "save_1/Const"
      input: "save_1/RestoreV2_80/tensor_names"
      input: "save_1/RestoreV2_80/shape_and_slices"
      attr {
        key: "_output_shapes"
        value {
          list {
            shape {
              unknown_rank: true
            }
          }
        }
      }
      attr {
        key: "dtypes"
        value {
          list {
            type: DT_FLOAT
          }
        }
      }
    }
    node {
      name: "save_1/Assign_80"
      op: "Assign"
      input: "fire_deconv13_expand_2_1x1/bias"
      input: "save_1/RestoreV2_80"
      attr {
        key: "T"
        value {
          type: DT_FLOAT
        }
      }
      attr {
        key: "_class"
        value {
          list {
            s: "loc:@fire_deconv13_expand_2_1x1/bias"
          }
        }
      }
      attr {
        key: "_output_shapes"
        value {
          list {
            shape {
              dim {
                size: 48
              }
            }
          }
        }
      }
      attr {
        key: "use_locking"
        value {
          b: true
        }
      }
      attr {
        key: "validate_shape"
        value {
          b: true
        }
      }
    }
    node {
      name: "save_1/RestoreV2_81/tensor_names"
      op: "Const"
      attr {
        key: "_output_shapes"
        value {
          list {
            shape {
              dim {
                size: 1
              }
            }
          }
        }
      }
      attr {
        key: "dtype"
        value {
          type: DT_STRING
        }
      }
      attr {
        key: "value"
        value {
          tensor {
            dtype: DT_STRING
            tensor_shape {
              dim {
                size: 1
              }
            }
            string_val: "fire_deconv13_expand_2_1x1/kernel"
          }
        }
      }
    }
    node {
      name: "save_1/RestoreV2_81/shape_and_slices"
      op: "Const"
      attr {
        key: "_output_shapes"
        value {
          list {
            shape {
              dim {
                size: 1
              }
            }
          }
        }
      }
      attr {
        key: "dtype"
        value {
          type: DT_STRING
        }
      }
      attr {
        key: "value"
        value {
          tensor {
            dtype: DT_STRING
            tensor_shape {
              dim {
                size: 1
              }
            }
            string_val: ""
          }
        }
      }
    }
    node {
      name: "save_1/RestoreV2_81"
      op: "RestoreV2"
      input: "save_1/Const"
      input: "save_1/RestoreV2_81/tensor_names"
      input: "save_1/RestoreV2_81/shape_and_slices"
      attr {
        key: "_output_shapes"
        value {
          list {
            shape {
              unknown_rank: true
            }
          }
        }
      }
      attr {
        key: "dtypes"
        value {
          list {
            type: DT_FLOAT
          }
        }
      }
    }
    node {
      name: "save_1/Assign_81"
      op: "Assign"
      input: "fire_deconv13_expand_2_1x1/kernel"
      input: "save_1/RestoreV2_81"
      attr {
        key: "T"
        value {
          type: DT_FLOAT
        }
      }
      attr {
        key: "_class"
        value {
          list {
            s: "loc:@fire_deconv13_expand_2_1x1/kernel"
          }
        }
      }
      attr {
        key: "_output_shapes"
        value {
          list {
            shape {
              dim {
                size: 1
              }
              dim {
                size: 1
              }
              dim {
                size: 24
              }
              dim {
                size: 48
              }
            }
          }
        }
      }
      attr {
        key: "use_locking"
        value {
          b: true
        }
      }
      attr {
        key: "validate_shape"
        value {
          b: true
        }
      }
    }
    node {
      name: "save_1/RestoreV2_82/tensor_names"
      op: "Const"
      attr {
        key: "_output_shapes"
        value {
          list {
            shape {
              dim {
                size: 1
              }
            }
          }
        }
      }
      attr {
        key: "dtype"
        value {
          type: DT_STRING
        }
      }
      attr {
        key: "value"
        value {
          tensor {
            dtype: DT_STRING
            tensor_shape {
              dim {
                size: 1
              }
            }
            string_val: "fire_deconv13_squeeze/bias"
          }
        }
      }
    }
    node {
      name: "save_1/RestoreV2_82/shape_and_slices"
      op: "Const"
      attr {
        key: "_output_shapes"
        value {
          list {
            shape {
              dim {
                size: 1
              }
            }
          }
        }
      }
      attr {
        key: "dtype"
        value {
          type: DT_STRING
        }
      }
      attr {
        key: "value"
        value {
          tensor {
            dtype: DT_STRING
            tensor_shape {
              dim {
                size: 1
              }
            }
            string_val: ""
          }
        }
      }
    }
    node {
      name: "save_1/RestoreV2_82"
      op: "RestoreV2"
      input: "save_1/Const"
      input: "save_1/RestoreV2_82/tensor_names"
      input: "save_1/RestoreV2_82/shape_and_slices"
      attr {
        key: "_output_shapes"
        value {
          list {
            shape {
              unknown_rank: true
            }
          }
        }
      }
      attr {
        key: "dtypes"
        value {
          list {
            type: DT_FLOAT
          }
        }
      }
    }
    node {
      name: "save_1/Assign_82"
      op: "Assign"
      input: "fire_deconv13_squeeze/bias"
      input: "save_1/RestoreV2_82"
      attr {
        key: "T"
        value {
          type: DT_FLOAT
        }
      }
      attr {
        key: "_class"
        value {
          list {
            s: "loc:@fire_deconv13_squeeze/bias"
          }
        }
      }
      attr {
        key: "_output_shapes"
        value {
          list {
            shape {
              dim {
                size: 24
              }
            }
          }
        }
      }
      attr {
        key: "use_locking"
        value {
          b: true
        }
      }
      attr {
        key: "validate_shape"
        value {
          b: true
        }
      }
    }
    node {
      name: "save_1/RestoreV2_83/tensor_names"
      op: "Const"
      attr {
        key: "_output_shapes"
        value {
          list {
            shape {
              dim {
                size: 1
              }
            }
          }
        }
      }
      attr {
        key: "dtype"
        value {
          type: DT_STRING
        }
      }
      attr {
        key: "value"
        value {
          tensor {
            dtype: DT_STRING
            tensor_shape {
              dim {
                size: 1
              }
            }
            string_val: "fire_deconv13_squeeze/kernel"
          }
        }
      }
    }
    node {
      name: "save_1/RestoreV2_83/shape_and_slices"
      op: "Const"
      attr {
        key: "_output_shapes"
        value {
          list {
            shape {
              dim {
                size: 1
              }
            }
          }
        }
      }
      attr {
        key: "dtype"
        value {
          type: DT_STRING
        }
      }
      attr {
        key: "value"
        value {
          tensor {
            dtype: DT_STRING
            tensor_shape {
              dim {
                size: 1
              }
            }
            string_val: ""
          }
        }
      }
    }
    node {
      name: "save_1/RestoreV2_83"
      op: "RestoreV2"
      input: "save_1/Const"
      input: "save_1/RestoreV2_83/tensor_names"
      input: "save_1/RestoreV2_83/shape_and_slices"
      attr {
        key: "_output_shapes"
        value {
          list {
            shape {
              unknown_rank: true
            }
          }
        }
      }
      attr {
        key: "dtypes"
        value {
          list {
            type: DT_FLOAT
          }
        }
      }
    }
    node {
      name: "save_1/Assign_83"
      op: "Assign"
      input: "fire_deconv13_squeeze/kernel"
      input: "save_1/RestoreV2_83"
      attr {
        key: "T"
        value {
          type: DT_FLOAT
        }
      }
      attr {
        key: "_class"
        value {
          list {
            s: "loc:@fire_deconv13_squeeze/kernel"
          }
        }
      }
      attr {
        key: "_output_shapes"
        value {
          list {
            shape {
              dim {
                size: 1
              }
              dim {
                size: 1
              }
              dim {
                size: 96
              }
              dim {
                size: 24
              }
            }
          }
        }
      }
      attr {
        key: "use_locking"
        value {
          b: true
        }
      }
      attr {
        key: "validate_shape"
        value {
          b: true
        }
      }
    }
    node {
      name: "save_1/RestoreV2_84/tensor_names"
      op: "Const"
      attr {
        key: "_output_shapes"
        value {
          list {
            shape {
              dim {
                size: 1
              }
            }
          }
        }
      }
      attr {
        key: "dtype"
        value {
          type: DT_STRING
        }
      }
      attr {
        key: "value"
        value {
          tensor {
            dtype: DT_STRING
            tensor_shape {
              dim {
                size: 1
              }
            }
            string_val: "global_step"
          }
        }
      }
    }
    node {
      name: "save_1/RestoreV2_84/shape_and_slices"
      op: "Const"
      attr {
        key: "_output_shapes"
        value {
          list {
            shape {
              dim {
                size: 1
              }
            }
          }
        }
      }
      attr {
        key: "dtype"
        value {
          type: DT_STRING
        }
      }
      attr {
        key: "value"
        value {
          tensor {
            dtype: DT_STRING
            tensor_shape {
              dim {
                size: 1
              }
            }
            string_val: ""
          }
        }
      }
    }
    node {
      name: "save_1/RestoreV2_84"
      op: "RestoreV2"
      input: "save_1/Const"
      input: "save_1/RestoreV2_84/tensor_names"
      input: "save_1/RestoreV2_84/shape_and_slices"
      attr {
        key: "_output_shapes"
        value {
          list {
            shape {
              unknown_rank: true
            }
          }
        }
      }
      attr {
        key: "dtypes"
        value {
          list {
            type: DT_INT64
          }
        }
      }
    }
    node {
      name: "save_1/Assign_84"
      op: "Assign"
      input: "global_step"
      input: "save_1/RestoreV2_84"
      attr {
        key: "T"
        value {
          type: DT_INT64
        }
      }
      attr {
        key: "_class"
        value {
          list {
            s: "loc:@global_step"
          }
        }
      }
      attr {
        key: "_output_shapes"
        value {
          list {
            shape {
            }
          }
        }
      }
      attr {
        key: "use_locking"
        value {
          b: true
        }
      }
      attr {
        key: "validate_shape"
        value {
          b: true
        }
      }
    }
    node {
      name: "save_1/restore_shard"
      op: "NoOp"
      input: "^save_1/Assign"
      input: "^save_1/Assign_1"
      input: "^save_1/Assign_2"
      input: "^save_1/Assign_3"
      input: "^save_1/Assign_4"
      input: "^save_1/Assign_5"
      input: "^save_1/Assign_6"
      input: "^save_1/Assign_7"
      input: "^save_1/Assign_8"
      input: "^save_1/Assign_9"
      input: "^save_1/Assign_10"
      input: "^save_1/Assign_11"
      input: "^save_1/Assign_12"
      input: "^save_1/Assign_13"
      input: "^save_1/Assign_14"
      input: "^save_1/Assign_15"
      input: "^save_1/Assign_16"
      input: "^save_1/Assign_17"
      input: "^save_1/Assign_18"
      input: "^save_1/Assign_19"
      input: "^save_1/Assign_20"
      input: "^save_1/Assign_21"
      input: "^save_1/Assign_22"
      input: "^save_1/Assign_23"
      input: "^save_1/Assign_24"
      input: "^save_1/Assign_25"
      input: "^save_1/Assign_26"
      input: "^save_1/Assign_27"
      input: "^save_1/Assign_28"
      input: "^save_1/Assign_29"
      input: "^save_1/Assign_30"
      input: "^save_1/Assign_31"
      input: "^save_1/Assign_32"
      input: "^save_1/Assign_33"
      input: "^save_1/Assign_34"
      input: "^save_1/Assign_35"
      input: "^save_1/Assign_36"
      input: "^save_1/Assign_37"
      input: "^save_1/Assign_38"
      input: "^save_1/Assign_39"
      input: "^save_1/Assign_40"
      input: "^save_1/Assign_41"
      input: "^save_1/Assign_42"
      input: "^save_1/Assign_43"
      input: "^save_1/Assign_44"
      input: "^save_1/Assign_45"
      input: "^save_1/Assign_46"
      input: "^save_1/Assign_47"
      input: "^save_1/Assign_48"
      input: "^save_1/Assign_49"
      input: "^save_1/Assign_50"
      input: "^save_1/Assign_51"
      input: "^save_1/Assign_52"
      input: "^save_1/Assign_53"
      input: "^save_1/Assign_54"
      input: "^save_1/Assign_55"
      input: "^save_1/Assign_56"
      input: "^save_1/Assign_57"
      input: "^save_1/Assign_58"
      input: "^save_1/Assign_59"
      input: "^save_1/Assign_60"
      input: "^save_1/Assign_61"
      input: "^save_1/Assign_62"
      input: "^save_1/Assign_63"
      input: "^save_1/Assign_64"
      input: "^save_1/Assign_65"
      input: "^save_1/Assign_66"
      input: "^save_1/Assign_67"
      input: "^save_1/Assign_68"
      input: "^save_1/Assign_69"
      input: "^save_1/Assign_70"
      input: "^save_1/Assign_71"
      input: "^save_1/Assign_72"
      input: "^save_1/Assign_73"
      input: "^save_1/Assign_74"
      input: "^save_1/Assign_75"
      input: "^save_1/Assign_76"
      input: "^save_1/Assign_77"
      input: "^save_1/Assign_78"
      input: "^save_1/Assign_79"
      input: "^save_1/Assign_80"
      input: "^save_1/Assign_81"
      input: "^save_1/Assign_82"
      input: "^save_1/Assign_83"
      input: "^save_1/Assign_84"
    }
    node {
      name: "save_1/restore_all"
      op: "NoOp"
      input: "^save_1/restore_shard"
    }
    versions {
      producer: 24
    }
  }
  saver_def {
    filename_tensor_name: "save_1/Const:0"
    save_tensor_name: "save_1/Identity:0"
    restore_op_name: "save_1/restore_all"
    max_to_keep: 5
    sharded: true
    keep_checkpoint_every_n_hours: 10000.0
    version: V2
  }
  collection_def {
    key: "global_step"
    value {
      node_list {
        value: "global_step:0"
      }
    }
  }
  collection_def {
    key: "legacy_init_op"
    value {
      node_list {
        value: "group_deps"
      }
    }
  }
  collection_def {
    key: "trainable_variables"
    value {
      bytes_list {
        value: "\n\016conv1/kernel:0\022\023conv1/kernel/Assign\032\023conv1/kernel/read:02)conv1/kernel/Initializer/random_uniform:0"
        value: "\n\014conv1/bias:0\022\021conv1/bias/Assign\032\021conv1/bias/read:02\036conv1/bias/Initializer/zeros:0"
        value: "\n\026fire2_squeeze/kernel:0\022\033fire2_squeeze/kernel/Assign\032\033fire2_squeeze/kernel/read:021fire2_squeeze/kernel/Initializer/random_uniform:0"
        value: "\n\024fire2_squeeze/bias:0\022\031fire2_squeeze/bias/Assign\032\031fire2_squeeze/bias/read:02&fire2_squeeze/bias/Initializer/zeros:0"
        value: "\n\033fire2_expand_1_3x3/kernel:0\022 fire2_expand_1_3x3/kernel/Assign\032 fire2_expand_1_3x3/kernel/read:026fire2_expand_1_3x3/kernel/Initializer/random_uniform:0"
        value: "\n\031fire2_expand_1_3x3/bias:0\022\036fire2_expand_1_3x3/bias/Assign\032\036fire2_expand_1_3x3/bias/read:02+fire2_expand_1_3x3/bias/Initializer/zeros:0"
        value: "\n\033fire2_expand_2_1x1/kernel:0\022 fire2_expand_2_1x1/kernel/Assign\032 fire2_expand_2_1x1/kernel/read:026fire2_expand_2_1x1/kernel/Initializer/random_uniform:0"
        value: "\n\031fire2_expand_2_1x1/bias:0\022\036fire2_expand_2_1x1/bias/Assign\032\036fire2_expand_2_1x1/bias/read:02+fire2_expand_2_1x1/bias/Initializer/zeros:0"
        value: "\n\026fire3_squeeze/kernel:0\022\033fire3_squeeze/kernel/Assign\032\033fire3_squeeze/kernel/read:021fire3_squeeze/kernel/Initializer/random_uniform:0"
        value: "\n\024fire3_squeeze/bias:0\022\031fire3_squeeze/bias/Assign\032\031fire3_squeeze/bias/read:02&fire3_squeeze/bias/Initializer/zeros:0"
        value: "\n\033fire3_expand_1_3x3/kernel:0\022 fire3_expand_1_3x3/kernel/Assign\032 fire3_expand_1_3x3/kernel/read:026fire3_expand_1_3x3/kernel/Initializer/random_uniform:0"
        value: "\n\031fire3_expand_1_3x3/bias:0\022\036fire3_expand_1_3x3/bias/Assign\032\036fire3_expand_1_3x3/bias/read:02+fire3_expand_1_3x3/bias/Initializer/zeros:0"
        value: "\n\033fire3_expand_2_1x1/kernel:0\022 fire3_expand_2_1x1/kernel/Assign\032 fire3_expand_2_1x1/kernel/read:026fire3_expand_2_1x1/kernel/Initializer/random_uniform:0"
        value: "\n\031fire3_expand_2_1x1/bias:0\022\036fire3_expand_2_1x1/bias/Assign\032\036fire3_expand_2_1x1/bias/read:02+fire3_expand_2_1x1/bias/Initializer/zeros:0"
        value: "\n\026fire4_squeeze/kernel:0\022\033fire4_squeeze/kernel/Assign\032\033fire4_squeeze/kernel/read:021fire4_squeeze/kernel/Initializer/random_uniform:0"
        value: "\n\024fire4_squeeze/bias:0\022\031fire4_squeeze/bias/Assign\032\031fire4_squeeze/bias/read:02&fire4_squeeze/bias/Initializer/zeros:0"
        value: "\n\033fire4_expand_1_3x3/kernel:0\022 fire4_expand_1_3x3/kernel/Assign\032 fire4_expand_1_3x3/kernel/read:026fire4_expand_1_3x3/kernel/Initializer/random_uniform:0"
        value: "\n\031fire4_expand_1_3x3/bias:0\022\036fire4_expand_1_3x3/bias/Assign\032\036fire4_expand_1_3x3/bias/read:02+fire4_expand_1_3x3/bias/Initializer/zeros:0"
        value: "\n\033fire4_expand_2_1x1/kernel:0\022 fire4_expand_2_1x1/kernel/Assign\032 fire4_expand_2_1x1/kernel/read:026fire4_expand_2_1x1/kernel/Initializer/random_uniform:0"
        value: "\n\031fire4_expand_2_1x1/bias:0\022\036fire4_expand_2_1x1/bias/Assign\032\036fire4_expand_2_1x1/bias/read:02+fire4_expand_2_1x1/bias/Initializer/zeros:0"
        value: "\n\026fire5_squeeze/kernel:0\022\033fire5_squeeze/kernel/Assign\032\033fire5_squeeze/kernel/read:021fire5_squeeze/kernel/Initializer/random_uniform:0"
        value: "\n\024fire5_squeeze/bias:0\022\031fire5_squeeze/bias/Assign\032\031fire5_squeeze/bias/read:02&fire5_squeeze/bias/Initializer/zeros:0"
        value: "\n\033fire5_expand_1_3x3/kernel:0\022 fire5_expand_1_3x3/kernel/Assign\032 fire5_expand_1_3x3/kernel/read:026fire5_expand_1_3x3/kernel/Initializer/random_uniform:0"
        value: "\n\031fire5_expand_1_3x3/bias:0\022\036fire5_expand_1_3x3/bias/Assign\032\036fire5_expand_1_3x3/bias/read:02+fire5_expand_1_3x3/bias/Initializer/zeros:0"
        value: "\n\033fire5_expand_2_1x1/kernel:0\022 fire5_expand_2_1x1/kernel/Assign\032 fire5_expand_2_1x1/kernel/read:026fire5_expand_2_1x1/kernel/Initializer/random_uniform:0"
        value: "\n\031fire5_expand_2_1x1/bias:0\022\036fire5_expand_2_1x1/bias/Assign\032\036fire5_expand_2_1x1/bias/read:02+fire5_expand_2_1x1/bias/Initializer/zeros:0"
        value: "\n\026fire6_squeeze/kernel:0\022\033fire6_squeeze/kernel/Assign\032\033fire6_squeeze/kernel/read:021fire6_squeeze/kernel/Initializer/random_uniform:0"
        value: "\n\024fire6_squeeze/bias:0\022\031fire6_squeeze/bias/Assign\032\031fire6_squeeze/bias/read:02&fire6_squeeze/bias/Initializer/zeros:0"
        value: "\n\033fire6_expand_1_3x3/kernel:0\022 fire6_expand_1_3x3/kernel/Assign\032 fire6_expand_1_3x3/kernel/read:026fire6_expand_1_3x3/kernel/Initializer/random_uniform:0"
        value: "\n\031fire6_expand_1_3x3/bias:0\022\036fire6_expand_1_3x3/bias/Assign\032\036fire6_expand_1_3x3/bias/read:02+fire6_expand_1_3x3/bias/Initializer/zeros:0"
        value: "\n\033fire6_expand_2_1x1/kernel:0\022 fire6_expand_2_1x1/kernel/Assign\032 fire6_expand_2_1x1/kernel/read:026fire6_expand_2_1x1/kernel/Initializer/random_uniform:0"
        value: "\n\031fire6_expand_2_1x1/bias:0\022\036fire6_expand_2_1x1/bias/Assign\032\036fire6_expand_2_1x1/bias/read:02+fire6_expand_2_1x1/bias/Initializer/zeros:0"
        value: "\n\026fire7_squeeze/kernel:0\022\033fire7_squeeze/kernel/Assign\032\033fire7_squeeze/kernel/read:021fire7_squeeze/kernel/Initializer/random_uniform:0"
        value: "\n\024fire7_squeeze/bias:0\022\031fire7_squeeze/bias/Assign\032\031fire7_squeeze/bias/read:02&fire7_squeeze/bias/Initializer/zeros:0"
        value: "\n\033fire7_expand_1_3x3/kernel:0\022 fire7_expand_1_3x3/kernel/Assign\032 fire7_expand_1_3x3/kernel/read:026fire7_expand_1_3x3/kernel/Initializer/random_uniform:0"
        value: "\n\031fire7_expand_1_3x3/bias:0\022\036fire7_expand_1_3x3/bias/Assign\032\036fire7_expand_1_3x3/bias/read:02+fire7_expand_1_3x3/bias/Initializer/zeros:0"
        value: "\n\033fire7_expand_2_1x1/kernel:0\022 fire7_expand_2_1x1/kernel/Assign\032 fire7_expand_2_1x1/kernel/read:026fire7_expand_2_1x1/kernel/Initializer/random_uniform:0"
        value: "\n\031fire7_expand_2_1x1/bias:0\022\036fire7_expand_2_1x1/bias/Assign\032\036fire7_expand_2_1x1/bias/read:02+fire7_expand_2_1x1/bias/Initializer/zeros:0"
        value: "\n\026fire8_squeeze/kernel:0\022\033fire8_squeeze/kernel/Assign\032\033fire8_squeeze/kernel/read:021fire8_squeeze/kernel/Initializer/random_uniform:0"
        value: "\n\024fire8_squeeze/bias:0\022\031fire8_squeeze/bias/Assign\032\031fire8_squeeze/bias/read:02&fire8_squeeze/bias/Initializer/zeros:0"
        value: "\n\033fire8_expand_1_3x3/kernel:0\022 fire8_expand_1_3x3/kernel/Assign\032 fire8_expand_1_3x3/kernel/read:026fire8_expand_1_3x3/kernel/Initializer/random_uniform:0"
        value: "\n\031fire8_expand_1_3x3/bias:0\022\036fire8_expand_1_3x3/bias/Assign\032\036fire8_expand_1_3x3/bias/read:02+fire8_expand_1_3x3/bias/Initializer/zeros:0"
        value: "\n\033fire8_expand_2_1x1/kernel:0\022 fire8_expand_2_1x1/kernel/Assign\032 fire8_expand_2_1x1/kernel/read:026fire8_expand_2_1x1/kernel/Initializer/random_uniform:0"
        value: "\n\031fire8_expand_2_1x1/bias:0\022\036fire8_expand_2_1x1/bias/Assign\032\036fire8_expand_2_1x1/bias/read:02+fire8_expand_2_1x1/bias/Initializer/zeros:0"
        value: "\n\026fire9_squeeze/kernel:0\022\033fire9_squeeze/kernel/Assign\032\033fire9_squeeze/kernel/read:021fire9_squeeze/kernel/Initializer/random_uniform:0"
        value: "\n\024fire9_squeeze/bias:0\022\031fire9_squeeze/bias/Assign\032\031fire9_squeeze/bias/read:02&fire9_squeeze/bias/Initializer/zeros:0"
        value: "\n\033fire9_expand_1_3x3/kernel:0\022 fire9_expand_1_3x3/kernel/Assign\032 fire9_expand_1_3x3/kernel/read:026fire9_expand_1_3x3/kernel/Initializer/random_uniform:0"
        value: "\n\031fire9_expand_1_3x3/bias:0\022\036fire9_expand_1_3x3/bias/Assign\032\036fire9_expand_1_3x3/bias/read:02+fire9_expand_1_3x3/bias/Initializer/zeros:0"
        value: "\n\033fire9_expand_2_1x1/kernel:0\022 fire9_expand_2_1x1/kernel/Assign\032 fire9_expand_2_1x1/kernel/read:026fire9_expand_2_1x1/kernel/Initializer/random_uniform:0"
        value: "\n\031fire9_expand_2_1x1/bias:0\022\036fire9_expand_2_1x1/bias/Assign\032\036fire9_expand_2_1x1/bias/read:02+fire9_expand_2_1x1/bias/Initializer/zeros:0"
        value: "\n\036fire_deconv10_squeeze/kernel:0\022#fire_deconv10_squeeze/kernel/Assign\032#fire_deconv10_squeeze/kernel/read:029fire_deconv10_squeeze/kernel/Initializer/random_uniform:0"
        value: "\n\034fire_deconv10_squeeze/bias:0\022!fire_deconv10_squeeze/bias/Assign\032!fire_deconv10_squeeze/bias/read:02.fire_deconv10_squeeze/bias/Initializer/zeros:0"
        value: "\n\036fire_deconv10_deconv2/kernel:0\022#fire_deconv10_deconv2/kernel/Assign\032#fire_deconv10_deconv2/kernel/read:029fire_deconv10_deconv2/kernel/Initializer/random_uniform:0"
        value: "\n\034fire_deconv10_deconv2/bias:0\022!fire_deconv10_deconv2/bias/Assign\032!fire_deconv10_deconv2/bias/read:02.fire_deconv10_deconv2/bias/Initializer/zeros:0"
        value: "\n#fire_deconv10_expand_1_3x3/kernel:0\022(fire_deconv10_expand_1_3x3/kernel/Assign\032(fire_deconv10_expand_1_3x3/kernel/read:02>fire_deconv10_expand_1_3x3/kernel/Initializer/random_uniform:0"
        value: "\n!fire_deconv10_expand_1_3x3/bias:0\022&fire_deconv10_expand_1_3x3/bias/Assign\032&fire_deconv10_expand_1_3x3/bias/read:023fire_deconv10_expand_1_3x3/bias/Initializer/zeros:0"
        value: "\n#fire_deconv10_expand_2_1x1/kernel:0\022(fire_deconv10_expand_2_1x1/kernel/Assign\032(fire_deconv10_expand_2_1x1/kernel/read:02>fire_deconv10_expand_2_1x1/kernel/Initializer/random_uniform:0"
        value: "\n!fire_deconv10_expand_2_1x1/bias:0\022&fire_deconv10_expand_2_1x1/bias/Assign\032&fire_deconv10_expand_2_1x1/bias/read:023fire_deconv10_expand_2_1x1/bias/Initializer/zeros:0"
        value: "\n\036fire_deconv11_squeeze/kernel:0\022#fire_deconv11_squeeze/kernel/Assign\032#fire_deconv11_squeeze/kernel/read:029fire_deconv11_squeeze/kernel/Initializer/random_uniform:0"
        value: "\n\034fire_deconv11_squeeze/bias:0\022!fire_deconv11_squeeze/bias/Assign\032!fire_deconv11_squeeze/bias/read:02.fire_deconv11_squeeze/bias/Initializer/zeros:0"
        value: "\n\036fire_deconv11_deconv2/kernel:0\022#fire_deconv11_deconv2/kernel/Assign\032#fire_deconv11_deconv2/kernel/read:029fire_deconv11_deconv2/kernel/Initializer/random_uniform:0"
        value: "\n\034fire_deconv11_deconv2/bias:0\022!fire_deconv11_deconv2/bias/Assign\032!fire_deconv11_deconv2/bias/read:02.fire_deconv11_deconv2/bias/Initializer/zeros:0"
        value: "\n#fire_deconv11_expand_1_3x3/kernel:0\022(fire_deconv11_expand_1_3x3/kernel/Assign\032(fire_deconv11_expand_1_3x3/kernel/read:02>fire_deconv11_expand_1_3x3/kernel/Initializer/random_uniform:0"
        value: "\n!fire_deconv11_expand_1_3x3/bias:0\022&fire_deconv11_expand_1_3x3/bias/Assign\032&fire_deconv11_expand_1_3x3/bias/read:023fire_deconv11_expand_1_3x3/bias/Initializer/zeros:0"
        value: "\n#fire_deconv11_expand_2_1x1/kernel:0\022(fire_deconv11_expand_2_1x1/kernel/Assign\032(fire_deconv11_expand_2_1x1/kernel/read:02>fire_deconv11_expand_2_1x1/kernel/Initializer/random_uniform:0"
        value: "\n!fire_deconv11_expand_2_1x1/bias:0\022&fire_deconv11_expand_2_1x1/bias/Assign\032&fire_deconv11_expand_2_1x1/bias/read:023fire_deconv11_expand_2_1x1/bias/Initializer/zeros:0"
        value: "\n\036fire_deconv12_squeeze/kernel:0\022#fire_deconv12_squeeze/kernel/Assign\032#fire_deconv12_squeeze/kernel/read:029fire_deconv12_squeeze/kernel/Initializer/random_uniform:0"
        value: "\n\034fire_deconv12_squeeze/bias:0\022!fire_deconv12_squeeze/bias/Assign\032!fire_deconv12_squeeze/bias/read:02.fire_deconv12_squeeze/bias/Initializer/zeros:0"
        value: "\n\036fire_deconv12_deconv2/kernel:0\022#fire_deconv12_deconv2/kernel/Assign\032#fire_deconv12_deconv2/kernel/read:029fire_deconv12_deconv2/kernel/Initializer/random_uniform:0"
        value: "\n\034fire_deconv12_deconv2/bias:0\022!fire_deconv12_deconv2/bias/Assign\032!fire_deconv12_deconv2/bias/read:02.fire_deconv12_deconv2/bias/Initializer/zeros:0"
        value: "\n#fire_deconv12_expand_1_3x3/kernel:0\022(fire_deconv12_expand_1_3x3/kernel/Assign\032(fire_deconv12_expand_1_3x3/kernel/read:02>fire_deconv12_expand_1_3x3/kernel/Initializer/random_uniform:0"
        value: "\n!fire_deconv12_expand_1_3x3/bias:0\022&fire_deconv12_expand_1_3x3/bias/Assign\032&fire_deconv12_expand_1_3x3/bias/read:023fire_deconv12_expand_1_3x3/bias/Initializer/zeros:0"
        value: "\n#fire_deconv12_expand_2_1x1/kernel:0\022(fire_deconv12_expand_2_1x1/kernel/Assign\032(fire_deconv12_expand_2_1x1/kernel/read:02>fire_deconv12_expand_2_1x1/kernel/Initializer/random_uniform:0"
        value: "\n!fire_deconv12_expand_2_1x1/bias:0\022&fire_deconv12_expand_2_1x1/bias/Assign\032&fire_deconv12_expand_2_1x1/bias/read:023fire_deconv12_expand_2_1x1/bias/Initializer/zeros:0"
        value: "\n\036fire_deconv13_squeeze/kernel:0\022#fire_deconv13_squeeze/kernel/Assign\032#fire_deconv13_squeeze/kernel/read:029fire_deconv13_squeeze/kernel/Initializer/random_uniform:0"
        value: "\n\034fire_deconv13_squeeze/bias:0\022!fire_deconv13_squeeze/bias/Assign\032!fire_deconv13_squeeze/bias/read:02.fire_deconv13_squeeze/bias/Initializer/zeros:0"
        value: "\n\036fire_deconv13_deconv2/kernel:0\022#fire_deconv13_deconv2/kernel/Assign\032#fire_deconv13_deconv2/kernel/read:029fire_deconv13_deconv2/kernel/Initializer/random_uniform:0"
        value: "\n\034fire_deconv13_deconv2/bias:0\022!fire_deconv13_deconv2/bias/Assign\032!fire_deconv13_deconv2/bias/read:02.fire_deconv13_deconv2/bias/Initializer/zeros:0"
        value: "\n#fire_deconv13_expand_1_3x3/kernel:0\022(fire_deconv13_expand_1_3x3/kernel/Assign\032(fire_deconv13_expand_1_3x3/kernel/read:02>fire_deconv13_expand_1_3x3/kernel/Initializer/random_uniform:0"
        value: "\n!fire_deconv13_expand_1_3x3/bias:0\022&fire_deconv13_expand_1_3x3/bias/Assign\032&fire_deconv13_expand_1_3x3/bias/read:023fire_deconv13_expand_1_3x3/bias/Initializer/zeros:0"
        value: "\n#fire_deconv13_expand_2_1x1/kernel:0\022(fire_deconv13_expand_2_1x1/kernel/Assign\032(fire_deconv13_expand_2_1x1/kernel/read:02>fire_deconv13_expand_2_1x1/kernel/Initializer/random_uniform:0"
        value: "\n!fire_deconv13_expand_2_1x1/bias:0\022&fire_deconv13_expand_2_1x1/bias/Assign\032&fire_deconv13_expand_2_1x1/bias/read:023fire_deconv13_expand_2_1x1/bias/Initializer/zeros:0"
        value: "\n\017conv14/kernel:0\022\024conv14/kernel/Assign\032\024conv14/kernel/read:02*conv14/kernel/Initializer/random_uniform:0"
        value: "\n\rconv14/bias:0\022\022conv14/bias/Assign\032\022conv14/bias/read:02\037conv14/bias/Initializer/zeros:0"
      }
    }
  }
  collection_def {
    key: "variables"
    value {
      bytes_list {
        value: "\n\rglobal_step:0\022\022global_step/Assign\032\022global_step/read:02\037global_step/Initializer/zeros:0"
        value: "\n\016conv1/kernel:0\022\023conv1/kernel/Assign\032\023conv1/kernel/read:02)conv1/kernel/Initializer/random_uniform:0"
        value: "\n\014conv1/bias:0\022\021conv1/bias/Assign\032\021conv1/bias/read:02\036conv1/bias/Initializer/zeros:0"
        value: "\n\026fire2_squeeze/kernel:0\022\033fire2_squeeze/kernel/Assign\032\033fire2_squeeze/kernel/read:021fire2_squeeze/kernel/Initializer/random_uniform:0"
        value: "\n\024fire2_squeeze/bias:0\022\031fire2_squeeze/bias/Assign\032\031fire2_squeeze/bias/read:02&fire2_squeeze/bias/Initializer/zeros:0"
        value: "\n\033fire2_expand_1_3x3/kernel:0\022 fire2_expand_1_3x3/kernel/Assign\032 fire2_expand_1_3x3/kernel/read:026fire2_expand_1_3x3/kernel/Initializer/random_uniform:0"
        value: "\n\031fire2_expand_1_3x3/bias:0\022\036fire2_expand_1_3x3/bias/Assign\032\036fire2_expand_1_3x3/bias/read:02+fire2_expand_1_3x3/bias/Initializer/zeros:0"
        value: "\n\033fire2_expand_2_1x1/kernel:0\022 fire2_expand_2_1x1/kernel/Assign\032 fire2_expand_2_1x1/kernel/read:026fire2_expand_2_1x1/kernel/Initializer/random_uniform:0"
        value: "\n\031fire2_expand_2_1x1/bias:0\022\036fire2_expand_2_1x1/bias/Assign\032\036fire2_expand_2_1x1/bias/read:02+fire2_expand_2_1x1/bias/Initializer/zeros:0"
        value: "\n\026fire3_squeeze/kernel:0\022\033fire3_squeeze/kernel/Assign\032\033fire3_squeeze/kernel/read:021fire3_squeeze/kernel/Initializer/random_uniform:0"
        value: "\n\024fire3_squeeze/bias:0\022\031fire3_squeeze/bias/Assign\032\031fire3_squeeze/bias/read:02&fire3_squeeze/bias/Initializer/zeros:0"
        value: "\n\033fire3_expand_1_3x3/kernel:0\022 fire3_expand_1_3x3/kernel/Assign\032 fire3_expand_1_3x3/kernel/read:026fire3_expand_1_3x3/kernel/Initializer/random_uniform:0"
        value: "\n\031fire3_expand_1_3x3/bias:0\022\036fire3_expand_1_3x3/bias/Assign\032\036fire3_expand_1_3x3/bias/read:02+fire3_expand_1_3x3/bias/Initializer/zeros:0"
        value: "\n\033fire3_expand_2_1x1/kernel:0\022 fire3_expand_2_1x1/kernel/Assign\032 fire3_expand_2_1x1/kernel/read:026fire3_expand_2_1x1/kernel/Initializer/random_uniform:0"
        value: "\n\031fire3_expand_2_1x1/bias:0\022\036fire3_expand_2_1x1/bias/Assign\032\036fire3_expand_2_1x1/bias/read:02+fire3_expand_2_1x1/bias/Initializer/zeros:0"
        value: "\n\026fire4_squeeze/kernel:0\022\033fire4_squeeze/kernel/Assign\032\033fire4_squeeze/kernel/read:021fire4_squeeze/kernel/Initializer/random_uniform:0"
        value: "\n\024fire4_squeeze/bias:0\022\031fire4_squeeze/bias/Assign\032\031fire4_squeeze/bias/read:02&fire4_squeeze/bias/Initializer/zeros:0"
        value: "\n\033fire4_expand_1_3x3/kernel:0\022 fire4_expand_1_3x3/kernel/Assign\032 fire4_expand_1_3x3/kernel/read:026fire4_expand_1_3x3/kernel/Initializer/random_uniform:0"
        value: "\n\031fire4_expand_1_3x3/bias:0\022\036fire4_expand_1_3x3/bias/Assign\032\036fire4_expand_1_3x3/bias/read:02+fire4_expand_1_3x3/bias/Initializer/zeros:0"
        value: "\n\033fire4_expand_2_1x1/kernel:0\022 fire4_expand_2_1x1/kernel/Assign\032 fire4_expand_2_1x1/kernel/read:026fire4_expand_2_1x1/kernel/Initializer/random_uniform:0"
        value: "\n\031fire4_expand_2_1x1/bias:0\022\036fire4_expand_2_1x1/bias/Assign\032\036fire4_expand_2_1x1/bias/read:02+fire4_expand_2_1x1/bias/Initializer/zeros:0"
        value: "\n\026fire5_squeeze/kernel:0\022\033fire5_squeeze/kernel/Assign\032\033fire5_squeeze/kernel/read:021fire5_squeeze/kernel/Initializer/random_uniform:0"
        value: "\n\024fire5_squeeze/bias:0\022\031fire5_squeeze/bias/Assign\032\031fire5_squeeze/bias/read:02&fire5_squeeze/bias/Initializer/zeros:0"
        value: "\n\033fire5_expand_1_3x3/kernel:0\022 fire5_expand_1_3x3/kernel/Assign\032 fire5_expand_1_3x3/kernel/read:026fire5_expand_1_3x3/kernel/Initializer/random_uniform:0"
        value: "\n\031fire5_expand_1_3x3/bias:0\022\036fire5_expand_1_3x3/bias/Assign\032\036fire5_expand_1_3x3/bias/read:02+fire5_expand_1_3x3/bias/Initializer/zeros:0"
        value: "\n\033fire5_expand_2_1x1/kernel:0\022 fire5_expand_2_1x1/kernel/Assign\032 fire5_expand_2_1x1/kernel/read:026fire5_expand_2_1x1/kernel/Initializer/random_uniform:0"
        value: "\n\031fire5_expand_2_1x1/bias:0\022\036fire5_expand_2_1x1/bias/Assign\032\036fire5_expand_2_1x1/bias/read:02+fire5_expand_2_1x1/bias/Initializer/zeros:0"
        value: "\n\026fire6_squeeze/kernel:0\022\033fire6_squeeze/kernel/Assign\032\033fire6_squeeze/kernel/read:021fire6_squeeze/kernel/Initializer/random_uniform:0"
        value: "\n\024fire6_squeeze/bias:0\022\031fire6_squeeze/bias/Assign\032\031fire6_squeeze/bias/read:02&fire6_squeeze/bias/Initializer/zeros:0"
        value: "\n\033fire6_expand_1_3x3/kernel:0\022 fire6_expand_1_3x3/kernel/Assign\032 fire6_expand_1_3x3/kernel/read:026fire6_expand_1_3x3/kernel/Initializer/random_uniform:0"
        value: "\n\031fire6_expand_1_3x3/bias:0\022\036fire6_expand_1_3x3/bias/Assign\032\036fire6_expand_1_3x3/bias/read:02+fire6_expand_1_3x3/bias/Initializer/zeros:0"
        value: "\n\033fire6_expand_2_1x1/kernel:0\022 fire6_expand_2_1x1/kernel/Assign\032 fire6_expand_2_1x1/kernel/read:026fire6_expand_2_1x1/kernel/Initializer/random_uniform:0"
        value: "\n\031fire6_expand_2_1x1/bias:0\022\036fire6_expand_2_1x1/bias/Assign\032\036fire6_expand_2_1x1/bias/read:02+fire6_expand_2_1x1/bias/Initializer/zeros:0"
        value: "\n\026fire7_squeeze/kernel:0\022\033fire7_squeeze/kernel/Assign\032\033fire7_squeeze/kernel/read:021fire7_squeeze/kernel/Initializer/random_uniform:0"
        value: "\n\024fire7_squeeze/bias:0\022\031fire7_squeeze/bias/Assign\032\031fire7_squeeze/bias/read:02&fire7_squeeze/bias/Initializer/zeros:0"
        value: "\n\033fire7_expand_1_3x3/kernel:0\022 fire7_expand_1_3x3/kernel/Assign\032 fire7_expand_1_3x3/kernel/read:026fire7_expand_1_3x3/kernel/Initializer/random_uniform:0"
        value: "\n\031fire7_expand_1_3x3/bias:0\022\036fire7_expand_1_3x3/bias/Assign\032\036fire7_expand_1_3x3/bias/read:02+fire7_expand_1_3x3/bias/Initializer/zeros:0"
        value: "\n\033fire7_expand_2_1x1/kernel:0\022 fire7_expand_2_1x1/kernel/Assign\032 fire7_expand_2_1x1/kernel/read:026fire7_expand_2_1x1/kernel/Initializer/random_uniform:0"
        value: "\n\031fire7_expand_2_1x1/bias:0\022\036fire7_expand_2_1x1/bias/Assign\032\036fire7_expand_2_1x1/bias/read:02+fire7_expand_2_1x1/bias/Initializer/zeros:0"
        value: "\n\026fire8_squeeze/kernel:0\022\033fire8_squeeze/kernel/Assign\032\033fire8_squeeze/kernel/read:021fire8_squeeze/kernel/Initializer/random_uniform:0"
        value: "\n\024fire8_squeeze/bias:0\022\031fire8_squeeze/bias/Assign\032\031fire8_squeeze/bias/read:02&fire8_squeeze/bias/Initializer/zeros:0"
        value: "\n\033fire8_expand_1_3x3/kernel:0\022 fire8_expand_1_3x3/kernel/Assign\032 fire8_expand_1_3x3/kernel/read:026fire8_expand_1_3x3/kernel/Initializer/random_uniform:0"
        value: "\n\031fire8_expand_1_3x3/bias:0\022\036fire8_expand_1_3x3/bias/Assign\032\036fire8_expand_1_3x3/bias/read:02+fire8_expand_1_3x3/bias/Initializer/zeros:0"
        value: "\n\033fire8_expand_2_1x1/kernel:0\022 fire8_expand_2_1x1/kernel/Assign\032 fire8_expand_2_1x1/kernel/read:026fire8_expand_2_1x1/kernel/Initializer/random_uniform:0"
        value: "\n\031fire8_expand_2_1x1/bias:0\022\036fire8_expand_2_1x1/bias/Assign\032\036fire8_expand_2_1x1/bias/read:02+fire8_expand_2_1x1/bias/Initializer/zeros:0"
        value: "\n\026fire9_squeeze/kernel:0\022\033fire9_squeeze/kernel/Assign\032\033fire9_squeeze/kernel/read:021fire9_squeeze/kernel/Initializer/random_uniform:0"
        value: "\n\024fire9_squeeze/bias:0\022\031fire9_squeeze/bias/Assign\032\031fire9_squeeze/bias/read:02&fire9_squeeze/bias/Initializer/zeros:0"
        value: "\n\033fire9_expand_1_3x3/kernel:0\022 fire9_expand_1_3x3/kernel/Assign\032 fire9_expand_1_3x3/kernel/read:026fire9_expand_1_3x3/kernel/Initializer/random_uniform:0"
        value: "\n\031fire9_expand_1_3x3/bias:0\022\036fire9_expand_1_3x3/bias/Assign\032\036fire9_expand_1_3x3/bias/read:02+fire9_expand_1_3x3/bias/Initializer/zeros:0"
        value: "\n\033fire9_expand_2_1x1/kernel:0\022 fire9_expand_2_1x1/kernel/Assign\032 fire9_expand_2_1x1/kernel/read:026fire9_expand_2_1x1/kernel/Initializer/random_uniform:0"
        value: "\n\031fire9_expand_2_1x1/bias:0\022\036fire9_expand_2_1x1/bias/Assign\032\036fire9_expand_2_1x1/bias/read:02+fire9_expand_2_1x1/bias/Initializer/zeros:0"
        value: "\n\036fire_deconv10_squeeze/kernel:0\022#fire_deconv10_squeeze/kernel/Assign\032#fire_deconv10_squeeze/kernel/read:029fire_deconv10_squeeze/kernel/Initializer/random_uniform:0"
        value: "\n\034fire_deconv10_squeeze/bias:0\022!fire_deconv10_squeeze/bias/Assign\032!fire_deconv10_squeeze/bias/read:02.fire_deconv10_squeeze/bias/Initializer/zeros:0"
        value: "\n\036fire_deconv10_deconv2/kernel:0\022#fire_deconv10_deconv2/kernel/Assign\032#fire_deconv10_deconv2/kernel/read:029fire_deconv10_deconv2/kernel/Initializer/random_uniform:0"
        value: "\n\034fire_deconv10_deconv2/bias:0\022!fire_deconv10_deconv2/bias/Assign\032!fire_deconv10_deconv2/bias/read:02.fire_deconv10_deconv2/bias/Initializer/zeros:0"
        value: "\n#fire_deconv10_expand_1_3x3/kernel:0\022(fire_deconv10_expand_1_3x3/kernel/Assign\032(fire_deconv10_expand_1_3x3/kernel/read:02>fire_deconv10_expand_1_3x3/kernel/Initializer/random_uniform:0"
        value: "\n!fire_deconv10_expand_1_3x3/bias:0\022&fire_deconv10_expand_1_3x3/bias/Assign\032&fire_deconv10_expand_1_3x3/bias/read:023fire_deconv10_expand_1_3x3/bias/Initializer/zeros:0"
        value: "\n#fire_deconv10_expand_2_1x1/kernel:0\022(fire_deconv10_expand_2_1x1/kernel/Assign\032(fire_deconv10_expand_2_1x1/kernel/read:02>fire_deconv10_expand_2_1x1/kernel/Initializer/random_uniform:0"
        value: "\n!fire_deconv10_expand_2_1x1/bias:0\022&fire_deconv10_expand_2_1x1/bias/Assign\032&fire_deconv10_expand_2_1x1/bias/read:023fire_deconv10_expand_2_1x1/bias/Initializer/zeros:0"
        value: "\n\036fire_deconv11_squeeze/kernel:0\022#fire_deconv11_squeeze/kernel/Assign\032#fire_deconv11_squeeze/kernel/read:029fire_deconv11_squeeze/kernel/Initializer/random_uniform:0"
        value: "\n\034fire_deconv11_squeeze/bias:0\022!fire_deconv11_squeeze/bias/Assign\032!fire_deconv11_squeeze/bias/read:02.fire_deconv11_squeeze/bias/Initializer/zeros:0"
        value: "\n\036fire_deconv11_deconv2/kernel:0\022#fire_deconv11_deconv2/kernel/Assign\032#fire_deconv11_deconv2/kernel/read:029fire_deconv11_deconv2/kernel/Initializer/random_uniform:0"
        value: "\n\034fire_deconv11_deconv2/bias:0\022!fire_deconv11_deconv2/bias/Assign\032!fire_deconv11_deconv2/bias/read:02.fire_deconv11_deconv2/bias/Initializer/zeros:0"
        value: "\n#fire_deconv11_expand_1_3x3/kernel:0\022(fire_deconv11_expand_1_3x3/kernel/Assign\032(fire_deconv11_expand_1_3x3/kernel/read:02>fire_deconv11_expand_1_3x3/kernel/Initializer/random_uniform:0"
        value: "\n!fire_deconv11_expand_1_3x3/bias:0\022&fire_deconv11_expand_1_3x3/bias/Assign\032&fire_deconv11_expand_1_3x3/bias/read:023fire_deconv11_expand_1_3x3/bias/Initializer/zeros:0"
        value: "\n#fire_deconv11_expand_2_1x1/kernel:0\022(fire_deconv11_expand_2_1x1/kernel/Assign\032(fire_deconv11_expand_2_1x1/kernel/read:02>fire_deconv11_expand_2_1x1/kernel/Initializer/random_uniform:0"
        value: "\n!fire_deconv11_expand_2_1x1/bias:0\022&fire_deconv11_expand_2_1x1/bias/Assign\032&fire_deconv11_expand_2_1x1/bias/read:023fire_deconv11_expand_2_1x1/bias/Initializer/zeros:0"
        value: "\n\036fire_deconv12_squeeze/kernel:0\022#fire_deconv12_squeeze/kernel/Assign\032#fire_deconv12_squeeze/kernel/read:029fire_deconv12_squeeze/kernel/Initializer/random_uniform:0"
        value: "\n\034fire_deconv12_squeeze/bias:0\022!fire_deconv12_squeeze/bias/Assign\032!fire_deconv12_squeeze/bias/read:02.fire_deconv12_squeeze/bias/Initializer/zeros:0"
        value: "\n\036fire_deconv12_deconv2/kernel:0\022#fire_deconv12_deconv2/kernel/Assign\032#fire_deconv12_deconv2/kernel/read:029fire_deconv12_deconv2/kernel/Initializer/random_uniform:0"
        value: "\n\034fire_deconv12_deconv2/bias:0\022!fire_deconv12_deconv2/bias/Assign\032!fire_deconv12_deconv2/bias/read:02.fire_deconv12_deconv2/bias/Initializer/zeros:0"
        value: "\n#fire_deconv12_expand_1_3x3/kernel:0\022(fire_deconv12_expand_1_3x3/kernel/Assign\032(fire_deconv12_expand_1_3x3/kernel/read:02>fire_deconv12_expand_1_3x3/kernel/Initializer/random_uniform:0"
        value: "\n!fire_deconv12_expand_1_3x3/bias:0\022&fire_deconv12_expand_1_3x3/bias/Assign\032&fire_deconv12_expand_1_3x3/bias/read:023fire_deconv12_expand_1_3x3/bias/Initializer/zeros:0"
        value: "\n#fire_deconv12_expand_2_1x1/kernel:0\022(fire_deconv12_expand_2_1x1/kernel/Assign\032(fire_deconv12_expand_2_1x1/kernel/read:02>fire_deconv12_expand_2_1x1/kernel/Initializer/random_uniform:0"
        value: "\n!fire_deconv12_expand_2_1x1/bias:0\022&fire_deconv12_expand_2_1x1/bias/Assign\032&fire_deconv12_expand_2_1x1/bias/read:023fire_deconv12_expand_2_1x1/bias/Initializer/zeros:0"
        value: "\n\036fire_deconv13_squeeze/kernel:0\022#fire_deconv13_squeeze/kernel/Assign\032#fire_deconv13_squeeze/kernel/read:029fire_deconv13_squeeze/kernel/Initializer/random_uniform:0"
        value: "\n\034fire_deconv13_squeeze/bias:0\022!fire_deconv13_squeeze/bias/Assign\032!fire_deconv13_squeeze/bias/read:02.fire_deconv13_squeeze/bias/Initializer/zeros:0"
        value: "\n\036fire_deconv13_deconv2/kernel:0\022#fire_deconv13_deconv2/kernel/Assign\032#fire_deconv13_deconv2/kernel/read:029fire_deconv13_deconv2/kernel/Initializer/random_uniform:0"
        value: "\n\034fire_deconv13_deconv2/bias:0\022!fire_deconv13_deconv2/bias/Assign\032!fire_deconv13_deconv2/bias/read:02.fire_deconv13_deconv2/bias/Initializer/zeros:0"
        value: "\n#fire_deconv13_expand_1_3x3/kernel:0\022(fire_deconv13_expand_1_3x3/kernel/Assign\032(fire_deconv13_expand_1_3x3/kernel/read:02>fire_deconv13_expand_1_3x3/kernel/Initializer/random_uniform:0"
        value: "\n!fire_deconv13_expand_1_3x3/bias:0\022&fire_deconv13_expand_1_3x3/bias/Assign\032&fire_deconv13_expand_1_3x3/bias/read:023fire_deconv13_expand_1_3x3/bias/Initializer/zeros:0"
        value: "\n#fire_deconv13_expand_2_1x1/kernel:0\022(fire_deconv13_expand_2_1x1/kernel/Assign\032(fire_deconv13_expand_2_1x1/kernel/read:02>fire_deconv13_expand_2_1x1/kernel/Initializer/random_uniform:0"
        value: "\n!fire_deconv13_expand_2_1x1/bias:0\022&fire_deconv13_expand_2_1x1/bias/Assign\032&fire_deconv13_expand_2_1x1/bias/read:023fire_deconv13_expand_2_1x1/bias/Initializer/zeros:0"
        value: "\n\017conv14/kernel:0\022\024conv14/kernel/Assign\032\024conv14/kernel/read:02*conv14/kernel/Initializer/random_uniform:0"
        value: "\n\rconv14/bias:0\022\022conv14/bias/Assign\032\022conv14/bias/read:02\037conv14/bias/Initializer/zeros:0"
      }
    }
  }
  signature_def {
    key: "serving_default"
    value {
      inputs {
        key: "x"
        value {
          name: "Placeholder:0"
          dtype: DT_FLOAT
          tensor_shape {
            dim {
              size: -1
            }
            dim {
              size: 64
            }
            dim {
              size: 512
            }
            dim {
              size: 5
            }
          }
        }
      }
      outputs {
        key: "classes"
        value {
          name: "ArgMax_1:0"
          dtype: DT_INT64
          tensor_shape {
            dim {
              size: -1
            }
            dim {
              size: 64
            }
            dim {
              size: 512
            }
          }
        }
      }
      outputs {
        key: "probabilities"
        value {
          name: "softmax_tensor_1:0"
          dtype: DT_FLOAT
          tensor_shape {
            dim {
              size: -1
            }
            dim {
              size: 64
            }
            dim {
              size: 512
            }
            dim {
              size: 3
            }
          }
        }
      }
      method_name: "tensorflow/serving/predict"
    }
  }
}
